网络参数/P_net.pt (torch_old, 32805 bytes, 23 tensors)

pre_conv.0.weight f4 [10, 3, 3, 3]
0	0x3d96b25b	0.07358237
1	0xbe9bdda1	-0.30442527
2	0xbf8292fd	-1.0201107
3	0x404a3622	3.159554
4	0x3f53a430	0.82672405
5	0xbf7e20cc	-0.99268794
6	0x3f3f3ab2	0.74698937
7	0xbed578e7	-0.41693804
8	0xc0043406	-2.0656753
9	0x3f714a08	0.9425359
10	0x3e62942b	0.22126834
11	0xbde7053a	-0.11280294
12	0x3fad65aa	1.354665
13	0xbf21a092	-0.63135636
14	0xbfb6e1f5	-1.4287707
15	0x402a14bb	2.6575153
16	0xbeb31785	-0.3497888
17	0xbf9a0b25	-1.2034651
18	0x3f3a5872	0.72791207
19	0xbd057c95	-0.032589514
20	0xbe7725d9	-0.24135531
21	0xbd9feb3f	-0.078085415
22	0x3e285757	0.16439568
23	0xc02396c6	-2.5560775
24	0x3f3818a4	0.719126
25	0x3f1e27a7	0.61779255
26	0x3ccce64c	0.025012158
27	0xbf371925	-0.7152274
28	0xbf551722	-0.8323842
29	0x3f813a8b	1.0095991
30	0x3f703a72	0.9383918
31	0x3fc46715	1.5343958
32	0xbf745fb1	-0.95458513
33	0xbe868887	-0.26276037
34	0xbf03fc03	-0.51556414
35	0xc0432807	-3.049318
36	0x3f194c68	0.5988221
37	0xbecf4be1	-0.4048758
38	0x3e028bfc	0.12748712
39	0xbf9ce99a	-1.225879
40	0xbe9eaa1f	-0.30989167
41	0xbd9a965a	-0.075482085
42	0x3f0681cd	0.5254181
43	0x4023b142	2.557694
44	0x4058c721	3.3871539
45	0x3e8250ed	0.25452366
46	0xbe637fc1	-0.22216703
47	0xbea9af49	-0.33141544
48	0x3ebad721	0.36492255
49	0x3cf58743	0.029971724
50	0xbc270069	-0.010192969
51	0xbf08ff06	-0.53514135
52	0xbf43873a	-0.76378214
53	0xbfc2ecbc	-1.5228496
54	0xbf8f81da	-1.1211503
55	0xbf7673f6	-0.9627069
56	0xbefd3cd3	-0.49460468
57	0xc005e9bb	-2.0923908
58	0x3bba7120	0.005689755
59	0x3f24488d	0.64173204
60	0x3d7365b3	0.05942316
61	0x40322a0c	2.7838163
62	0x3f967767	1.1755189
63	0xbf8bc7a5	-1.0920302
64	0xc00e4858	-2.2231655
65	0x3ee40cec	0.4454111
66	0xbf76669e	-0.9625033
67	0xbe47dadf	-0.19517086
68	0x3ff30383	1.8985447
69	0x3fc3f10a	1.5307934
70	0x3fd06d9e	1.6283453
71	0x3f9c3bc1	1.2205735
72	0xbecfdb8f	-0.40597197
73	0xbfefa7c8	-1.8723078
74	0xbccb065b	-0.024783304
75	0x3f38520f	0.7200021
76	0x3f07ee29	0.5309778
77	0x3f8a356f	1.0797557
78	0x3eb227d8	0.34796023
79	0x3db43540	0.08799219
80	0xbef2acf3	-0.47397575
81	0x3f35ccca	0.7101561
82	0x401db178	2.4639568
83	0x3fbda594	1.4816155
84	0xbec5311b	-0.38514027
85	0xbfd44f98	-1.658679
86	0x3fb13e2d	1.38471
87	0xbf1e85aa	-0.61922705
88	0xc02b8b0b	-2.6803615
89	0xbe0c028f	-0.13672851
90	0x3df26437	0.11835521
91	0x400b4b89	2.1764853
92	0x3fde6db2	1.7377226
93	0xbfd3bbc9	-1.6541682
94	0xbdd79932	-0.105272666
95	0x3f8962c2	1.0733263
96	0xbfe7bac9	-1.8103877
97	0xbf05cccd	-0.52265626
98	0xbe884a77	-0.26619312
99	0x3e6ecb33	0.23319702
100	0x3f1f9787	0.6234059
101	0x3f31d6c1	0.69468313
102	0xbf5e040b	-0.8672492
103	0xbf281e81	-0.65671545
104	0x3f781092	0.96900284
105	0x3e9e2404	0.30886853
106	0xbe8a710c	-0.27039373
107	0xbf2bf497	-0.6717009
108	0x3f0aa469	0.5415712
109	0xc002f41c	-2.0461493
110	0xbf1ccd5a	-0.6125084
111	0x3e22d1be	0.15900323
112	0xbf27e991	-0.6559077
113	0x3fdbbf0c	1.7167678
114	0x3fa6cd3c	1.3031383
115	0x3f189ad4	0.5961125
116	0x3f92ab43	1.1458515
117	0x3fd307cf	1.6486758
118	0xbf75c443	-0.96002597
119	0x3f7dd1bc	0.99148154
120	0x3e71c985	0.2361203
121	0xc041ef32	-3.0302243
122	0x3e96159b	0.2931336
123	0xbe25d13b	-0.16193096
124	0xc006d43e	-2.1067042
125	0xbf0c8b6f	-0.5490026
126	0xbef698ac	-0.48163354
127	0x3d5cfa4f	0.05394965
128	0x3f58ffc0	0.84765244
129	0x400c5914	2.192937
130	0xbf10b2b6	-0.5652269
131	0x3ea191ef	0.3155665
132	0x3f2348b9	0.6378284
133	0xbf9af609	-1.2106334
134	0x3f4c67f2	0.7984611
135	0xbd0bb9f6	-0.034112893
136	0xbf113afe	-0.5673064
137	0xbebd5e05	-0.36985794
138	0xbec1b89d	-0.3783616
139	0xbf14b87e	-0.5809401
140	0x3fac2217	1.3447903
141	0xbfe970b2	-1.8237517
142	0xbf83602b	-1.0263723
143	0x3ff18a8a	1.8870404
144	0xbf8172b6	-1.0113132
145	0xbc22f5a8	-0.009946264
146	0x3fedb848	1.8571863
147	0xbfde0603	-1.7345585
148	0xbf5b5e8c	-0.8569114
149	0x3fdbc152	1.7168372
150	0xbfcdcdb5	-1.6078402
151	0xbe338486	-0.17531022
152	0x404da499	3.2131712
153	0x3e0bfb09	0.13669981
154	0x3eb23088	0.3480265
155	0xbf24e39b	-0.644098
156	0xbf06d010	-0.5266123
157	0x3e3bdd70	0.1834619
158	0x3f01a0c9	0.50635964
159	0x3f71544f	0.9426927
160	0xbf907ad5	-1.1287485
161	0xbf8b5423	-1.0885051
162	0x3f18b730	0.5965452
163	0xbe8a56da	-0.27019387
164	0x3f21c2b7	0.63187736
165	0x3f4b47f7	0.79406685
166	0xbf46f4af	-0.7771711
167	0xbfa3dc73	-1.2801651
168	0xbe813d99	-0.25242308
169	0xc04db7c4	-3.2143412
170	0xc01316a9	-2.298258
171	0xbcc0fb37	-0.023557289
172	0x3f32be86	0.69821966
173	0x3f4f6707	0.8101658
174	0xbef6af3e	-0.48180574
175	0x3fb1802b	1.3867239
176	0x3ed95355	0.4244639
177	0xbeb9e565	-0.36307827
178	0x3f65e119	0.89796597
179	0x3f4eec5a	0.80829394
180	0xbf3b56ac	-0.73179126
181	0xbf77158c	-0.9651725
182	0xbfabcedd	-1.3422505
183	0xbf6cada2	-0.9245244
184	0x3f70d19c	0.9406984
185	0x3f58fb8f	0.8475885
186	0x3f4fecd9	0.81220776
187	0x3ff1f449	1.8902675
188	0x3ff690c5	1.926293
189	0xbfab1ee6	-1.3368804
190	0x3f77dc29	0.9682031
191	0x3f655a59	0.89590985
192	0x3e9c805d	0.30566683
193	0x3ecf1243	0.4044362
194	0xbf2783e3	-0.6543562
195	0x3f894793	1.0724968
196	0xbf0e839b	-0.55669564
197	0xbfad7662	-1.3551753
198	0xbf07e425	-0.53082496
199	0xbf1070c8	-0.5642209
200	0x3f2e7fe2	0.68163884
201	0x3f540e0f	0.8283395
202	0x40438c3f	3.055435
203	0x3fb6d5ab	1.4283956
204	0xbf95a230	-1.1690121
205	0xc018d9c2	-2.388291
206	0xc005495a	-2.082602
207	0xbe0d5f8a	-0.13805977
208	0xbf95c22f	-1.1699885
209	0xbdec0332	-0.11524047
210	0x3e8b701a	0.27233964
211	0x3fe0c2da	1.7559464
212	0x3fb727e6	1.4309051
213	0xbe87923d	-0.26478758
214	0xbf2104bd	-0.62897855
215	0xbf81118e	-1.0083482
216	0x3f975088	1.1821451
217	0x40095530	2.1458244
218	0x3fac510e	1.3462236
219	0xbf09a1c7	-0.5376248
220	0xbe8bec0c	-0.27328527
221	0xbfa4ba1b	-1.2869295
222	0xbeae6e8f	-0.34068725
223	0xbf7a316c	-0.9773166
224	0xbfb04930	-1.3772335
225	0x4024b997	2.5738275
226	0x3fad8652	1.3556616
227	0x3eaf55b3	0.3424507
228	0x3f089ae7	0.5336136
229	0xbf37c36e	-0.7178258
230	0xbff5961c	-1.9186435
231	0xbf11ed5f	-0.57002825
232	0xbf891277	-1.070876
233	0xbd628fed	-0.05531304
234	0x3f0961fa	0.53665125
235	0x3fac1099	1.3442565
236	0x3ef72bb6	0.48275536
237	0xbe3ba2db	-0.18323843
238	0xbf6e248a	-0.93024504
239	0xc02ef539	-2.7337172
240	0x3de1dc43	0.1102834
241	0x3eeb0a50	0.45906305
242	0x3eaed0c2	0.34143645
243	0xbe6d9cfe	-0.23204419
244	0x3e0a0d9c	0.13481754
245	0x3ea32216	0.31861943
246	0x3e37e679	0.17959012
247	0xbfaf88de	-1.3713644
248	0xc0285e4c	-2.6307554
249	0x3ef66f56	0.48131818
250	0x3fceba0d	1.6150528
251	0x3f15f1bd	0.5857199
252	0xbedb23c9	-0.4280074
253	0xbf417892	-0.755746
254	0x3f2f21f3	0.6841118
255	0x3eb605f4	0.35551417

pre_conv.0.bias f4 [10]
0	0x3e1960f9	0.14978398
1	0xbeed64d6	-0.46365994
2	0x3df256bd	0.1183295
3	0xbe2ce1d1	-0.16883017
4	0xbf01b266	-0.5066284
5	0xbf0d757a	-0.5525738
6	0x3e8698b3	0.26288375
7	0xbf66f4ce	-0.9021729
8	0xbe6d51ee	-0.23175785
9	0xbeea02b5	-0.4570519

pre_conv.1.weight f4 [10]
0	0x3fc93d00	1.5721741
1	0x3f5b73f8	0.8572383
2	0x3fdcc4ec	1.7247596
3	0x3ff5112c	1.9145865
4	0x3f857a04	1.0427861
5	0x3fcc281b	1.5949739
6	0x3f8f8338	1.121192
7	0x3f8d2385	1.1026465
8	0x3fce5ba5	1.6121718
9	0x3fd90afa	1.6956475

pre_conv.1.bias f4 [10]
0	0x3f83f0ef	1.0307902
1	0x3eff1bd5	0.49825922
2	0x4012a6c6	2.291429
3	0xbc97a704	-0.018512256
4	0x3f1d33ed	0.6140736
5	0x3f0ea9d7	0.55727905
6	0xbe934b00	-0.28768158
7	0x3f04aead	0.51829034
8	0xbe3b6856	-0.1830152
9	0xbe5cfa2e	-0.21579811

pre_conv.1.running_mean f4 [10]
0	0x3f0b18c4	0.54334664
1	0xbf430885	-0.76184875
2	0x3f7e45c3	0.993252
3	0x3ede5bb3	0.43429336
4	0xbe8e4fbd	-0.2779521
5	0xbfb01e1d	-1.375919
6	0xbeec3c12	-0.4613958
7	0xbf76c0fb	-0.96388215
8	0xbf0a347d	-0.5398634
9	0xbfa72cc3	-1.3060535

pre_conv.1.running_var f4 [10]
0	0x40c1c7dc	6.055647
1	0x3e4d762e	0.20064613
2	0x40aec773	5.461847
3	0x40caafb3	6.3339477
4	0x3fb62a9c	1.4231753
5	0x40648081	3.5703433
6	0x3f187c13	0.5956432
7	0x3fd8a220	1.6924477
8	0x40a80722	5.2508707
9	0x403f528d	2.9894135

pre_conv.4.weight f4 [16, 10, 3, 3]
0	0xbfd2fc6c	-1.6483283
1	0xc007f54f	-2.1243474
2	0x4035f6f5	2.843198
3	0xbe4ff04d	-0.20306511
4	0x3f7366e8	0.950789
5	0x3fc58d3d	1.5433728
6	0x3efedaaf	0.49776217
7	0x3fdeb330	1.7398434
8	0xbd2f0374	-0.042727903
9	0xbfab26eb	-1.3371252
10	0xbfe1df9b	-1.7646364
11	0x405518c7	3.3296373
12	0x3e810800	0.25201416
13	0xbf98a002	-1.192383
14	0xc01d12e9	-2.4542792
15	0x3e1715a4	0.14754349
16	0x3fd4f277	1.6636494
17	0x3fbd443c	1.4786448
18	0x3eacd067	0.33752748
19	0x3fa1557b	1.2604212
20	0xbed1350f	-0.40860793
21	0x3f892a6f	1.0716075
22	0xbe92332e	-0.28554672
23	0xbfda0876	-1.7033832
24	0x3f4f50cb	0.80982655
25	0xbfdaee08	-1.7103891
26	0xbfc2898c	-1.5198226
27	0xbf89844e	-1.0743501
28	0xbfb93521	-1.4469339
29	0x3f2f6a64	0.68521714
30	0xbf3c5869	-0.73572403
31	0x40043ba2	2.0661397
32	0xbe9418b7	-0.28925106
33	0xbe293ddd	-0.16527505
34	0xc01114ae	-2.2668872
35	0xbe8dddd6	-0.2770831
36	0x3e1bcc14	0.15214568
37	0xbfb21223	-1.3911785
38	0xbf350277	-0.70706886
39	0x3fa68c9e	1.3011663
40	0xbf5e87d3	-0.86926
41	0xbf7a8a6f	-0.9786748
42	0xbfe07c33	-1.7537903
43	0xbe123114	-0.14276534
44	0xbf784225	-0.9697593
45	0xbef8d82e	-0.48602432
46	0xc016e59d	-2.3577645
47	0xc00a80a0	-2.1641006
48	0xbe033780	-0.1281414
49	0x3f89ef85	1.077622
50	0xbf321618	-0.6956496
51	0xbe88dd7c	-0.2673148
52	0x3eb722b6	0.3576867
53	0x402009f4	2.5006075
54	0xbe83b10a	-0.25721008
55	0x3eb8eec2	0.36119658
56	0xbf7dc311	-0.9912577
57	0x3ed491fb	0.41517624
58	0xbef1476d	-0.47124806
59	0x3f173f7b	0.5908124
60	0x3f12d85e	0.573614
61	0xbfb8a3a0	-1.4424934
62	0x3fbe7324	1.4878888
63	0x3f6f82af	0.9355878
64	0xbe88a940	-0.26691628
65	0xc030bf58	-2.7616787
66	0x3fb05124	1.3774762
67	0xbf02afbb	-0.51049393
68	0x3f04adb1	0.5182753
69	0x3f262431	0.64898974
70	0x40222bb8	2.5339184
71	0xbd86bc12	-0.0657884
72	0x3fbb4cb1	1.4632779
73	0x3f18ee2f	0.5973844
74	0xbd8e6817	-0.06953447
75	0x3f2291da	0.635038
76	0x3fe3820e	1.7774065
77	0xbdd826b8	-0.1055426
78	0x3c0053be	0.007832466
79	0x3f26b7e3	0.6512434
80	0xbd6121e7	-0.054963972
81	0xc0182988	-2.3775349
82	0x3ed666b6	0.41875237
83	0xbe86f6ea	-0.26360255
84	0xbf7a8da7	-0.97872394
85	0xc00ae95a	-2.1704926
86	0xbe7531d6	-0.23944792
87	0x3f46bf19	0.7763534
88	0xbf6ca57b	-0.92440003
89	0xbe37808b	-0.17920129
90	0xbe7baf9e	-0.24578711
91	0xc0919687	-4.549625
92	0xbf88330e	-1.0640581
93	0xbfb921e7	-1.4463471
94	0xbf6b7e70	-0.91989803
95	0x3f7e80eb	0.99415463
96	0xba807807	-0.0009801396
97	0x3f728973	0.9474098
98	0xbffd92a0	-1.9810371
99	0x3f01118c	0.504174
100	0xc0121f08	-2.283144
101	0xbd30e3d9	-0.043186042
102	0x40044129	2.066477
103	0x3f41e5dc	0.7574136
104	0x3ef93ac5	0.4867765
105	0x3f0aa337	0.54155296
106	0xbf8f65d9	-1.1202956
107	0xbe842a3a	-0.25813466
108	0x3f3357be	0.7005576
109	0xbec05d98	-0.37571406
110	0xbee77bba	-0.45211583
111	0x3f1d4c8c	0.61444926
112	0xbf06eec8	-0.527081
113	0xc01119a3	-2.2671897
114	0x3efa24be	0.48856157
115	0xbed4e60a	-0.41581756
116	0x3f583d44	0.84468484
117	0xc0002ee1	-2.0028613
118	0xbfa6494b	-1.2991117
119	0xbf4006ea	-0.7501055
120	0x3f3af03f	0.73022836
121	0xbf0b182b	-0.5433375
122	0xbbe939a8	-0.007117469
123	0x3af63e09	0.0018786798
124	0xbf7dcc01	-0.9913941
125	0x3f407de4	0.75192094
126	0x403569b3	2.8345764
127	0xc04d7b86	-3.2106643
128	0xbf13ce1c	-0.5773637
129	0x3fe5bfb6	1.794913
130	0xbf7d9e1f	-0.990694
131	0x3fd8506e	1.6899545
132	0x3fcb243c	1.5870433
133	0x3e94b1a7	0.29041788
134	0x3f44b0f3	0.76832503
135	0x40097a47	2.1480882
136	0xbf2b12bf	-0.6682548
137	0x3edcff95	0.43163744
138	0x3e3edab9	0.18638124
139	0x3f009231	0.5022307
140	0xbf226a61	-0.6344357
141	0x3fbb965c	1.4655261
142	0x3f3e8b5a	0.74431384
143	0x3eb4b2ae	0.35292572
144	0x4063c291	3.5587504
145	0xbea5a052	-0.32348877
146	0x3a62eb0f	0.0008656242
147	0xbe85bfad	-0.261228
148	0x3ef91e6e	0.48656029
149	0x3e26aa10	0.16275811
150	0xbfd8d735	-1.6940676
151	0xbf2bc9d1	-0.6710482
152	0xbfae08cd	-1.3596436
153	0x3dec4bc7	0.11537891
154	0xbf51dbcf	-0.81976026
155	0xbe1dab3a	-0.15397349
156	0xbdffc7ef	-0.12489306
157	0x3ec8cdc9	0.39219502
158	0x402081b7	2.5079172
159	0xbf95c914	-1.1701989
160	0xbf94e3e8	-1.1632051
161	0xbdc96e30	-0.0983547
162	0x400b4459	2.1760466
163	0x3f15ea27	0.58560413
164	0x3e12b927	0.14328443
165	0xbf5e2084	-0.86768365
166	0x3f87a8a6	1.0598342
167	0x3f1877cb	0.5955779
168	0xbfa42187	-1.2822732
169	0x3f104b7d	0.56365186
170	0xbf0eb9c5	-0.5575221
171	0x3fc57920	1.542759
172	0x3efca16d	0.49341908
173	0x3ffba396	1.9659297
174	0x3eff6192	0.49879128
175	0xbf429dc5	-0.7602199
176	0x3e512858	0.20425546
177	0x3f388881	0.7208329
178	0xbf149fe6	-0.58056486
179	0x3fccea65	1.6009032
180	0x3e785a98	0.24253309
181	0x3e9aa133	0.3020111
182	0x3ed35585	0.41276184
183	0x4003793f	2.0542753
184	0xc04f87c7	-3.2426622
185	0x401eff93	2.484349
186	0x3fa1742f	1.2613581
187	0xbd653c5e	-0.055965774
188	0xbf918cce	-1.1371095
189	0xbe4dde99	-0.20104446
190	0x3e598237	0.2124108
191	0xbe3e5342	-0.18586448
192	0xbc027281	-0.00796187
193	0xbfc44d7f	-1.533615
194	0x3fd02896	1.6262386
195	0xbe753076	-0.23944268
196	0x3cb22abe	0.021748897
197	0xbe90025c	-0.281268
198	0xbe0222c8	-0.1270858
199	0x3dfc3a0d	0.1231576
200	0x3deace19	0.11465091
201	0x3eb192ac	0.34682214
202	0x3eebf879	0.46088007
203	0xbe004a7e	-0.12528417
204	0x3e4b138c	0.19831675
205	0xbeffaa47	-0.499346
206	0xbec23134	-0.37928164
207	0x3f10ef7d	0.5661543
208	0xc0386521	-2.8811724
209	0xbf858ce0	-1.0433617
210	0xbdd288dc	-0.1028001
211	0x405f4a7a	3.4889207
212	0xbf14e1e7	-0.581572
213	0xbeda8b14	-0.42684233
214	0x3d95ac66	0.07308273
215	0x3effed10	0.49985552
216	0x3e9496e0	0.29021358
217	0xbe899182	-0.26868826
218	0x3e54c906	0.2077981
219	0x3eb0886a	0.34479076
220	0xbf83b239	-1.0288764
221	0xbdae3b73	-0.08507433
222	0xbe69a728	-0.22817671
223	0xbf93cd19	-1.1546966
224	0x3e51382b	0.20431583
225	0xbf8ce1f5	-1.1006457
226	0x3e84d9b2	0.25947338
227	0xbef33532	-0.47501522
228	0x3e8d14c6	0.2755491
229	0x4048cd8c	3.1375456
230	0xc0429f16	-3.0409598
231	0xbb41f984	-0.0029598186
232	0xbf14c921	-0.581194
233	0x3ef210b0	0.47278357
234	0xbeb44d8f	-0.35215423
235	0x3f14aa79	0.5807262
236	0xbe284179	-0.16431226
237	0x3f96d9f5	1.1785265
238	0xbeb6c8db	-0.35700116
239	0x3e81a572	0.25321537
240	0xbd914e0b	-0.07094964
241	0xbf8dc91d	-1.1077
242	0x3ef8bfaa	0.48583728
243	0xbf2e2455	-0.6802419
244	0xbe4b2bc9	-0.19840921
245	0x3d9f8270	0.07788551
246	0x3f1e3f0d	0.6181496
247	0x40454fc0	3.0829926
248	0x3f2c9a5a	0.6742302
249	0x3eaf23c0	0.34206963
250	0xbfb6dcae	-1.4286096
251	0xc022d6cf	-2.5443609
252	0x3f7bb6d2	0.98325837
253	0xc02105ff	-2.515991
254	0xbf357643	-0.7088358
255	0x3f0ef1e2	0.55837834

pre_conv.4.bias f4 [16]
0	0x3dc0d8cf	0.09416353
1	0x3eaa0ac8	0.3321135
2	0xbde15bcd	-0.11003838
3	0x3e904714	0.28179228
4	0xbe27dbfe	-0.16392514
5	0x3c4ad0dc	0.0123788975
6	0xbe50d09e	-0.20392081
7	0xbe356f47	-0.1771823
8	0x3e81ff58	0.25390124
9	0x3c05f19d	0.008175281
10	0x3dddaa83	0.10823538
11	0xbe3f463c	-0.18679136
12	0x3d093e2e	0.033506565
13	0x3ebeb4e4	0.37247384
14	0xbea63db3	-0.32468948
15	0x3df3c615	0.119030155

pre_conv.5.weight f4 [16]
0	0x3fe7e5ef	1.8117045
1	0x3fa66578	1.2999716
2	0x3fd3b546	1.6539695
3	0x400ac2ee	2.1681476
4	0x3fb59d50	1.4188633
5	0x3fe1490d	1.7600418
6	0x3fd2c9bc	1.6467814
7	0x3fa45aae	1.2840173
8	0x3fece09a	1.8506043
9	0x40179f4c	2.3690977
10	0x3f99afee	1.2006814
11	0x400cc59a	2.1995606
12	0x3fc6c51c	1.5528903
13	0x3fbb6fb1	1.464346
14	0x3f9fe55c	1.249187
15	0x3fe9e662	1.8273432

pre_conv.5.bias f4 [16]
0	0xbea5f3a1	-0.32412437
1	0x3f5d2105	0.8637851
2	0xbeafef6a	-0.34362346
3	0xbf0762d7	-0.5288519
4	0x3f6ede16	0.93307626
5	0x3fad5f0d	1.3544632
6	0x3e4848b5	0.19558986
7	0x3ebea620	0.37236118
8	0x3fc98fc2	1.5746996
9	0xbeb4e093	-0.35327587
10	0x3faff6fb	1.3747247
11	0xbe7f9589	-0.24959387
12	0x3f8af177	1.0854939
13	0xbe3b3c7e	-0.18284795
14	0x3e18d54e	0.1492512
15	0x40199630	2.3997917

pre_conv.5.running_mean f4 [16]
0	0xc166faa3	-14.436191
1	0xbe6e27df	-0.23257397
2	0xc076bc14	-3.8552294
3	0x4092faac	4.5930996
4	0xc09267cf	-4.575172
5	0xc1963940	-18.777954
6	0xc1b57e3c	-22.686638
7	0xc0a0dee6	-5.0272093
8	0xc1bda167	-23.70381
9	0xc1cf32ee	-25.899868
10	0x40e92357	7.285564
11	0x3fa79cb1	1.3094693
12	0x412953a6	10.582922
13	0xc1aaad41	-21.334597
14	0x4182900c	16.320335
15	0x4090f19f	4.529495

pre_conv.5.running_var f4 [16]
0	0x42d8d896	108.42302
1	0x428666fa	67.201126
2	0x4290258c	72.07333
3	0x4301efd3	129.93681
4	0x424e124d	51.51787
5	0x42c80c9d	100.024635
6	0x42cc4223	102.12917
7	0x424d09ca	51.25956
8	0x42ea877b	117.26461
9	0x42d89e1e	108.30882
10	0x424a7668	50.61563
11	0x42f4882f	122.26598
12	0x42c60c04	99.02347
13	0x4255c20c	53.4395
14	0x424505bc	49.2556
15	0x43184da4	152.30328

pre_conv.7.weight f4 [32, 16, 3, 3]
0	0xbf95d319	-1.1705047
1	0xbe080fc6	-0.13287267
2	0xbf154cea	-0.58320487
3	0x3ffbe044	1.9677815
4	0x3f5c8942	0.8614694
5	0x3dc319fd	0.09526441
6	0xbfca4739	-1.5802985
7	0xbf56faf4	-0.83976674
8	0xbf949f9e	-1.1611211
9	0xbf976c58	-1.1829939
10	0xbff6b810	-1.9274921
11	0xbf3d370c	-0.7391212
12	0xbfc4b299	-1.5367004
13	0x3f2a2350	0.6646013
14	0x3f13545b	0.5755059
15	0x3d3177fe	0.043327324
16	0x3efc2f48	0.49254823
17	0x3d606c8f	0.05479103
18	0x3f878938	1.0588751
19	0x3f489d43	0.7836496
20	0x3f824d87	1.017991
21	0x3fe8df0a	1.8193066
22	0x3ff26a48	1.8938684
23	0x3fa43de3	1.2831386
24	0x3f01c759	0.50694805
25	0x3fa3ae17	1.2787503
26	0x3e09f979	0.13474073
27	0x402e38d9	2.7222197
28	0xbf9345c6	-1.1505668
29	0x3ffca560	1.9737968
30	0x4006b22c	2.1046247
31	0x3df560dd	0.11981366
32	0x3fc52ce7	1.5404328
33	0x3fe56482	1.7921298
34	0xbe5f3b03	-0.21799855
35	0x3f7336a0	0.95005226
36	0xbf95d7ab	-1.1706442
37	0x3faaa9ee	1.3333108
38	0xbedae42f	-0.42752215
39	0xbf73f349	-0.952931
40	0xbfd47ed5	-1.6601206
41	0xbd7ded79	-0.06199405
42	0xc005b59e	-2.08921
43	0xbfa2ff4f	-1.2734164
44	0xbfd3cc19	-1.6546661
45	0xbfbbd6fd	-1.4674984
46	0x3f2fc9e3	0.6866743
47	0x3f2a52ba	0.6653248
48	0xbf9bcc91	-1.2171804
49	0xbe4c8bed	-0.19975252
50	0xbf2e1b63	-0.6801054
51	0x3f8cefe6	1.1010711
52	0xbea80053	-0.32812747
53	0xbf77802c	-0.9667995
54	0x3f355fd1	0.7084933
55	0xbf87f5fc	-1.0621943
56	0xbd8272d0	-0.06369555
57	0x3e90c56a	0.28275615
58	0x3f447751	0.7674456
59	0x4004b35d	2.0734475
60	0xbf506d7c	-0.8141706
61	0x3faac2ec	1.3340735
62	0x3f997d38	1.1991339
63	0xbeb04c82	-0.3443337
64	0x4020a809	2.510256
65	0x400a6195	2.162206
66	0x3f84ae61	1.0365716
67	0x3eceb8cc	0.40375364
68	0x3ff8ca78	1.9436789
69	0xbfd734f9	-1.6813041
70	0xbf76e949	-0.96449715
71	0xbf770ed9	-0.9650703
72	0xbfcde28a	-1.6084759
73	0x3eba4201	0.36378482
74	0x3eef800e	0.46777385
75	0xbde98cac	-0.11403784
76	0x3f877b0b	1.0584425
77	0x3f48ecf4	0.7848656
78	0xbea2fd0b	-0.3183368
79	0xbeec088b	-0.46100268
80	0x3c4a363f	0.012342035
81	0x3f82168c	1.0163131
82	0xbc026327	-0.00795821
83	0xbecf79ee	-0.40522712
84	0xbebd347a	-0.369541
85	0x3ed3514d	0.41272965
86	0x3e9b8fda	0.30383188
87	0x3fbc0583	1.4689182
88	0x3f37c0a6	0.71778333
89	0x3ef7b6fa	0.48381788
90	0x3fddfa3c	1.734199
91	0xbf7d698e	-0.9898919
92	0xbfeb98ac	-1.8405967
93	0x3f014a0c	0.5050361
94	0xbf863345	-1.0484396
95	0xbe6f93b4	-0.23396188
96	0x3fe3c64e	1.7794893
97	0x3f895a91	1.0730764
98	0xbfad2cfc	-1.3529353
99	0x3f8093d9	1.004512
100	0x3f8c099b	1.0940431
101	0x3ff4f872	1.913832
102	0x3f805fc5	1.0029227
103	0xbf032e7a	-0.5124279
104	0x3fdfeeac	1.7494712
105	0x3dec6824	0.11543301
106	0x3e1eeb68	0.15519488
107	0x3ff288f7	1.8948048
108	0xbf52ef87	-0.8239674
109	0x3f63c801	0.88977057
110	0x3ed88672	0.42290074
111	0xbfcb0b15	-1.5862757
112	0xbfac9d8c	-1.348558
113	0xbf25e5f3	-0.64804
114	0xc05b2220	-3.4239578
115	0xc0154d93	-2.3328598
116	0xbfb5bc00	-1.4197998
117	0x3e17b6e1	0.14815857
118	0x3f23e4a8	0.64020777
119	0xbd2051fb	-0.039140683
120	0xbea87398	-0.3290069
121	0x3ed44209	0.4145663
122	0x3ebce112	0.36890465
123	0xbd3fca5a	-0.046823837
124	0x3d4341fe	0.047670357
125	0xbea4ef57	-0.32213852
126	0xbfaeee98	-1.3666563
127	0x3de82786	0.113356635
128	0x3eeb7aa3	0.45992002
129	0x3f40de86	0.75339544
130	0x3d917e97	0.07104223
131	0x400e20e4	2.2207575
132	0xbfa5f723	-1.2966045
133	0x3e5a8d62	0.21342996
134	0xbe513adf	-0.20432614
135	0x4013d246	2.309709
136	0x3f1526b1	0.58262163
137	0xc00a27f4	-2.1586885
138	0xbf1d7520	-0.61506844
139	0x3ff57a1b	1.9177889
140	0x3f9c76da	1.2223771
141	0xc02492b6	-2.5714545
142	0xbec56ff1	-0.38561967
143	0xbff211af	-1.8911647
144	0x3f74a872	0.9556953
145	0xbfac38bb	-1.3454813
146	0xbf119901	-0.5687409
147	0xbf3728ef	-0.71546835
148	0xbf45b6db	-0.7723214
149	0xbf811d34	-1.0087037
150	0xbfa6c938	-1.3030157
151	0x3ff6dfe2	1.9287074
152	0x3f297df3	0.6620781
153	0x3f16e341	0.5894051
154	0x3f6745a7	0.90340656
155	0xbcb832bf	-0.022485135
156	0xbf277053	-0.6540577
157	0x3f4b5bdb	0.79437035
158	0x3f6ad944	0.9173777
159	0x3facb8f1	1.349394
160	0xbf6bb19d	-0.9206789
161	0x403de164	2.9668818
162	0xbf812808	-1.0090342
163	0xbecc1835	-0.39862218
164	0xbfcedbc3	-1.6160816
165	0x3e544978	0.20731151
166	0xbf36be7a	-0.71384394
167	0x3f0e7a95	0.55655795
168	0x3d3e5f7a	0.046477772
169	0xbdb19afd	-0.0867214
170	0x3f640801	0.89074713
171	0x3fe6b306	1.8023384
172	0xbec3367b	-0.38127503
173	0x3eb4a425	0.35281482
174	0x3ec55c57	0.38547012
175	0x401fa59e	2.4944835
176	0x3dc56d98	0.09640044
177	0x3fc6866d	1.5509773
178	0x3f4bf9ca	0.7967802
179	0x3fac7933	1.3474487
180	0xbe016b36	-0.12638554
181	0xbf1754ee	-0.5911397
182	0x3f13dc0a	0.5775763
183	0xbe0c59e6	-0.13706169
184	0xbf92478c	-1.1428084
185	0xbf6d4a29	-0.92691284
186	0xbfdbdd57	-1.7176923
187	0xbe949f99	-0.29028013
188	0x3f963016	1.1733425
189	0x3faa175f	1.3288382
190	0xbce1dfc1	-0.027572514
191	0x3fd1676f	1.635969
192	0xbde35017	-0.1109926
193	0xbfb28a20	-1.3948402
194	0x3ec94855	0.39312997
195	0x3f6817d2	0.90661347
196	0xc02d76ae	-2.7103686
197	0x3ed2b12f	0.41150805
198	0x3f27bdd9	0.6552406
199	0x3e251923	0.1612287
200	0x3faebfe6	1.3652313
201	0xbeb68073	-0.35644874
202	0xbe5eea3a	-0.21769038
203	0x3ebb9bc8	0.3664229
204	0x3f92ff15	1.1484095
205	0xbe87e1a2	-0.26539332
206	0x3fda054a	1.7032864
207	0xbf939916	-1.1531093
208	0x3f1bf7d3	0.60925025
209	0xbe72ddce	-0.23717424
210	0x3c79f464	0.015256021
211	0x3f53905b	0.82642144
212	0xbe50ea84	-0.2040196
213	0xbf01791c	-0.50575423
214	0x3f9acca2	1.2093699
215	0x3f0f6f18	0.5602889
216	0xbff53b95	-1.9158808
217	0xbfcde28f	-1.6084765
218	0xbfca7776	-1.5817707
219	0xbf7d3b86	-0.9891895
220	0x3e9bfc43	0.30465898
221	0x408a7d0d	4.327765
222	0xbd2fc8f9	-0.04291627
223	0x3fb681af	1.4258326
224	0x40264818	2.5981503
225	0xbea3195e	-0.3185529
226	0x3d113d90	0.0354591
227	0x4004f415	2.0773976
228	0xbf91420b	-1.134828
229	0x3f112e2c	0.5671108
230	0x401d2dcc	2.4559202
231	0x3ebd7413	0.3700262
232	0x3feaf76d	1.8356758
233	0x3e867a34	0.2626511
234	0xbda3903c	-0.07986495
235	0xbeb022d0	-0.3440156
236	0xbed9d1c7	-0.4254286
237	0xbc852435	-0.016252616
238	0xbf952b7c	-1.1653895
239	0x3f81c321	1.0137674
240	0xbe534cbd	-0.20634742
241	0xc044923c	-3.0714254
242	0x3ffa6a99	1.9563781
243	0x3f92014b	1.1406645
244	0xbf53c8df	-0.8272838
245	0xbed573cc	-0.41689909
246	0x3fdb473e	1.7131116
247	0x3fdd44ba	1.7286599
248	0x3e556a1a	0.20841256
249	0x4010d63a	2.2630754
250	0xbfb23b0e	-1.3924272
251	0xbfe44f10	-1.7836628
252	0x3ec3638d	0.3816189
253	0x3d6de171	0.058076326
254	0xbfd31371	-1.6490308
255	0xbfd01f31	-1.6259519

pre_conv.7.bias f4 [32]
0	0xbaa2eb78	-0.0012429794
1	0x3d9f60ed	0.07782159
2	0x3d238b5e	0.039927833
3	0x3dd9618b	0.10614308
4	0xbdb9cd9a	-0.090724185
5	0x3d67bbbd	0.056575526
6	0x3d286d21	0.0411197
7	0x3c63b0cb	0.013897131
8	0xbc8fcc55	-0.017553488
9	0xbd9ae361	-0.075629
10	0xbd25f26c	-0.040514395
11	0x3c6e66e1	0.014550895
12	0xbdb40fc6	-0.08792071
13	0xbd8a6f37	-0.06759494
14	0xbcfc95b7	-0.030833108
15	0x3da0ed7c	0.078577965
16	0x3e6633be	0.22480676
17	0xbc4fe66f	-0.012689217
18	0x3d9ebcca	0.077508524
19	0x3e000e12	0.12505367
20	0x3bf2cce7	0.00740968
21	0x3d3976ab	0.045279186
22	0x3e08f682	0.13375285
23	0x3c943225	0.018090317
24	0x3dd1b7e8	0.102401555
25	0x3d81b104	0.06332591
26	0xbd20e8f1	-0.03928465
27	0x3dcb35d6	0.09922378
28	0x3e52471c	0.20534939
29	0x3c99a67b	0.018756142
30	0x3d6859da	0.056726314
31	0xbd9188b2	-0.07106151

pre_conv.8.weight f4 [32]
0	0x3f6623dd	0.89898473
1	0x3f9364f1	1.151518
2	0x3ec6ce1c	0.38829124
3	0x3f61edf5	0.8825372
4	0x3f58aad7	0.8463568
5	0x3f415301	0.7551728
6	0x3efc772e	0.49309677
7	0x3f35b67b	0.7098157
8	0x3e1f0b42	0.15531638
9	0x3f9586bc	1.1681743
10	0x3f777232	0.96658623
11	0x3f847fc1	1.0351487
12	0x3f0cd727	0.55015796
13	0x3f7cc9af	0.98745245
14	0x3f548b71	0.8302527
15	0x3fcd6e68	1.6049318
16	0x4006bde5	2.1053402
17	0x3f3f25e5	0.746672
18	0x3f96aa6e	1.1770761
19	0x3f7947ab	0.9737498
20	0x3f852320	1.0401344
21	0x3f1b4fd0	0.6066866
22	0x3f88898a	1.0666974
23	0x3f3413cb	0.703427
24	0x3f80d359	1.0064498
25	0x3f5c9127	0.86158985
26	0x3f10ebb8	0.5660968
27	0x3ebb9645	0.36638084
28	0x3f8f459b	1.1193117
29	0x3f72afc1	0.9479943
30	0x3f39c238	0.7256198
31	0x3edb840c	0.4287418

pre_conv.8.bias f4 [32]
0	0xbeaeb2e8	-0.3412087
1	0xbf1230a2	-0.5710546
2	0xbe370e34	-0.17876512
3	0x3db66f96	0.08908002
4	0xbd57c60c	-0.052679107
5	0x3dbfbb76	0.09361927
6	0x3dae9675	0.08524791
7	0xbf0b670c	-0.5445411
8	0x3f28c40d	0.6592415
9	0xbf0c5309	-0.548142
10	0xbe9b440e	-0.3032536
11	0xbe93089d	-0.2871751
12	0xbd01a0e1	-0.031647567
13	0xbebaf4ae	-0.365148
14	0xbf29da19	-0.66348416
15	0xbec436b1	-0.38322976
16	0xbf0cf877	-0.5506663
17	0xbedf1370	-0.43569517
18	0xbec63281	-0.38710406
19	0x3dd7e96b	0.10542568
20	0xbf1a1c8a	-0.601998
21	0x3ea50039	0.32226732
22	0x3effdcf7	0.4997327
23	0xbda4f6d4	-0.08054891
24	0xbe84e73d	-0.2595767
25	0xbd122d0e	-0.0356875
26	0x3ecf512e	0.40491623
27	0x3f981c2e	1.18836
28	0xbe275553	-0.16341142
29	0x3dfbba86	0.12291436
30	0xbe580405	-0.21095283
31	0x3e27c8a4	0.16385132

pre_conv.8.running_mean f4 [32]
0	0xc1821719	-16.261278
1	0x41486dc5	12.526799
2	0xc1e4baa7	-28.591139
3	0xc1802854	-16.019691
4	0xc14ebf7e	-12.921751
5	0xc158dacd	-13.553418
6	0xc1e5e2c4	-28.735725
7	0xc1935a03	-18.418951
8	0xbf97fa2e	-1.1873224
9	0xc1e59a0a	-28.700214
10	0xc1c661f1	-24.797823
11	0xc01f9d53	-2.4939773
12	0xc1d8938e	-27.072048
13	0xc0e0e435	-7.0278573
14	0xc1060aff	-8.377685
15	0x4134f9f0	11.31102
16	0x40ac9b37	5.393947
17	0xc17dfb6a	-15.87388
18	0xc16b42f1	-14.703843
19	0x40029151	2.0401194
20	0xc19e10db	-19.75823
21	0xc0ff7907	-7.983524
22	0x4183d2c0	16.477905
23	0x41c1620b	24.172873
24	0xc010ba85	-2.2613842
25	0x42109a9a	36.150978
26	0x41692598	14.571678
27	0x417af65d	15.685147
28	0xc21bdd3b	-38.966045
29	0xc1553b6b	-13.327006
30	0xc102c9c0	-8.174255
31	0xc16f84f1	-14.969956

pre_conv.8.running_var f4 [32]
0	0x43cacc08	405.594
1	0x43220786	162.02939
2	0x438bdbf7	279.71848
3	0x4365624d	229.38399
4	0x432d22ec	173.13641
5	0x435e5ba9	222.35805
6	0x4395264f	298.2993
7	0x4340a9b3	192.66289
8	0x43aeb325	349.39957
9	0x439c256c	312.29236
10	0x43d618be	428.1933
11	0x432f5b56	175.35678
12	0x43a2594a	324.69757
13	0x4349367b	201.21281
14	0x43513faf	209.24876
15	0x43b6ae1c	365.36023
16	0x43d03039	416.37674
17	0x438ba605	279.29703
18	0x4367e288	231.88489
19	0x43415964	193.34918
20	0x43148349	148.51283
21	0x4318fd97	152.99059
22	0x439dc92e	315.57172
23	0x4365a4f8	229.64441
24	0x438198b9	259.19315
25	0x43086dd1	136.42897
26	0x43d90050	434.00244
27	0x43cb878f	407.05905
28	0x4421d740	647.3633
29	0x43663d08	230.2384
30	0x43d6481d	428.5634
31	0x43d1b366	419.40155

last_conv1.0.weight f4 [1, 32, 1, 1]
0	0x3ffdf354	1.9839883
1	0xc00f8e41	-2.2430575
2	0xbed2abd2	-0.41146713
3	0x403d2b24	2.955758
4	0xc00e1484	-2.2200022
5	0x4041d7ba	3.028792
6	0xbf83307f	-1.0249175
7	0xbfeb42ee	-1.83798
8	0xbefbb1b9	-0.4915903
9	0x3ffe6a58	1.9876204
10	0x401d699d	2.4595711
11	0x4025c182	2.5899358
12	0x3fc5da29	1.5457202
13	0x401762d5	2.3654072
14	0xbfe7743b	-1.8082346
15	0x40834c16	4.103038
16	0x408e9cad	4.4566255
17	0xbfe98b15	-1.824557
18	0x4020b74b	2.5111873
19	0x401ceb57	2.451864
20	0x3fecbf35	1.8495852
21	0xc02bbdb9	-2.6834548
22	0xc00cd90d	-2.2007477
23	0xbff72d4f	-1.9310702
24	0x40203704	2.503358
25	0xbff6eee2	-1.9291651
26	0x3fd59f59	1.6689254
27	0xbfd5b2ec	-1.6695228
28	0x401d0fcb	2.454089
29	0xbfd0b09b	-1.6303896
30	0xbf81f0b9	-1.0151588
31	0xbf8007bf	-1.0002364

last_conv2.0.weight f4 [4, 32, 1, 1]
0	0x3ea3cf6f	0.31994197
1	0xbaa04501	-0.0012227596
2	0xbed1cb08	-0.40975213
3	0x3bebad57	0.0071922946
4	0xbc30f200	-0.010799885
5	0x3cc6f8b0	0.024288505
6	0xbef53084	-0.47888577
7	0xbe77ce14	-0.24199706
8	0x3f5c0132	0.85939324
9	0x3cce5e24	0.025191374
10	0xbd8210bb	-0.06350847
11	0x3bf8d83a	0.0075941356
12	0x3dde847a	0.10865112
13	0x3d209691	0.03920609
14	0x3d5794c0	0.052632093
15	0x3b8907b5	0.004181827
16	0x3bd3649d	0.006451203
17	0x3d949e65	0.07256774
18	0x3d1978eb	0.037468832
19	0x3c91157b	0.017710438
20	0x3c5cb60c	0.013471138
21	0xbc47542c	-0.012166064
22	0x3b8468a3	0.004040794
23	0xbdb70198	-0.08935851
24	0x3c16c7b5	0.009202887
25	0xbbca1bf7	-0.0061678845
26	0x3eda298f	0.42609832
27	0xbeb3469c	-0.35014808
28	0x3ca82075	0.02052329
29	0xbcb75c86	-0.022382986
30	0xbea0ba74	-0.31392252
31	0xbe8474ad	-0.25870267
32	0x3eaaf595	0.3339049
33	0xbc925f0d	-0.01786759
34	0xbe99a898	-0.3001144
35	0x3d2cef51	0.042220417
36	0xba63cb6d	-0.00086896756
37	0x3cd1badf	0.025601802
38	0xbecc22e9	-0.39870384
39	0xbb79ace6	-0.003809744
40	0x3f6b6bfa	0.91961634
41	0x3cff6cc8	0.0311798
42	0x3dee7931	0.11644209
43	0x3cea6554	0.02861277
44	0xbe4812d0	-0.19538426
45	0x3c46d5e8	0.01213596
46	0xbd1665ef	-0.036718305
47	0xbd9c994b	-0.07646426
48	0x3d9ea8d6	0.07747047
49	0xbe2a29a1	-0.16617443
50	0x3ceb5acd	0.02872982
51	0x3c46611f	0.012108116
52	0x3d1ae183	0.03781272
53	0xbc38384f	-0.011243894
54	0x3a396a10	0.00070729945
55	0xbdb7cc9a	-0.089745715
56	0x3cb05a7d	0.021527523
57	0xbbe1857f	-0.006882369
58	0x3f9ef385	1.2418066
59	0xbfc990db	-1.5747331
60	0x3cf1be67	0.029509736
61	0xbc8b66fd	-0.017016882
62	0xbf727120	-0.94703865
63	0xbeab2a5e	-0.3343076
64	0xbe94cb7c	-0.29061496
65	0xbb8b49f3	-0.004250759
66	0xbe2e8621	-0.17043354
67	0xbd6e187f	-0.05812883
68	0x3c54ae26	0.012980973
69	0x3b7bdfc5	0.0038432938
70	0x3ea68b97	0.32528374
71	0xbdaf04e5	-0.085458554
72	0xbe0fda8b	-0.14048211
73	0xbcd13941	-0.025539996
74	0x3e058eeb	0.130428
75	0xbd154228	-0.036440045
76	0xbe621e6a	-0.22081915
77	0x3bd1f2ce	0.0064071184
78	0x3e57bc75	0.21067984
79	0xbdfc26db	-0.123120986
80	0x3dc149a9	0.09437878
81	0x3e7589be	0.23978326
82	0xbc6125e5	-0.013741945
83	0xbd13c2f6	-0.0360746
84	0xbd3d0d9e	-0.046155564
85	0x3c7cb599	0.015424156
86	0xbb74c44c	-0.0037348447
87	0x3d2ed6d1	0.042685334
88	0x3c10c30e	0.008835567
89	0x3c370419	0.011170411
90	0xbef252f1	-0.47328904
91	0x3f3899e4	0.7210982
92	0xbc260b82	-0.01013458
93	0x3b4d64ff	0.0031340716
94	0x3ebd9fac	0.37035882
95	0x3eeabe5e	0.45848364
96	0xbedd3ea9	-0.43211868
97	0xbca13102	-0.019676689
98	0x3d170678	0.036871403
99	0xbd23e6d5	-0.04001506
100	0x3ce80ffa	0.02832793
101	0xbc25e6dd	-0.010125843
102	0x3f1a98a2	0.6038915
103	0x3e4e2a65	0.2013336
104	0xbeccce07	-0.40000936
105	0xbd492e68	-0.049116522
106	0x3ec02a8f	0.3753247
107	0xbce399c9	-0.027783291
108	0xbf2113a7	-0.6292061
109	0xbcc5b8da	-0.024135996
110	0x3e14a02c	0.14514226
111	0xbe68442c	-0.22682256
112	0x3e2d234b	0.16907994
113	0x3cb4f79d	0.022090727
114	0xbce71dd1	-0.02821246
115	0xbd60eefd	-0.054915417
116	0xbd0adca6	-0.033901833
117	0x3cd1f1cf	0.025627999
118	0xb9c38ece	-0.00037299696
119	0x3dd04344	0.1016908
120	0x3bf08999	0.0073406217
121	0x3c50ad64	0.012736652
122	0x3d9e2e43	0.077236675
123	0xbe47e3a9	-0.19520439
124	0xbc93d4ea	-0.018045861
125	0x3c544f9d	0.012958434
126	0xbd8c1947	-0.06840759
127	0x3f0cb417	0.54962295

last_conv2.0.bias f4 [4]
0	0xbea40228	-0.32032895
1	0x3f2c34b4	0.6726792
2	0xbf0bafd6	-0.5456518
3	0x3f24e8d1	0.6441775

last_conv3.0.weight f4 [10, 32, 1, 1]
0	0x3e1c5890	0.15268159
1	0xbb4b8a36	-0.0031057722
2	0xbeb95476	-0.3619725
3	0xbc81b26d	-0.01583215
4	0xbbcf8cea	-0.006333937
5	0x3c491a24	0.012274299
6	0xbe846482	-0.2585793
7	0xbe57ca83	-0.21073346
8	0x3f25f83f	0.6483192
9	0x3c80471f	0.015658913
10	0xbc259178	-0.010105483
11	0xbbb6748b	-0.005568092
12	0x3c55d970	0.013052329
13	0x3cf17995	0.02947692
14	0x3dc582f6	0.096441194
15	0xbcf0fb7f	-0.029416798
16	0x3d015c2f	0.031582054
17	0x3df6a312	0.12042822
18	0x3cb7fe52	0.022460137
19	0x3b691888	0.00355676
20	0x3aa92132	0.001290357
21	0xbc06eddb	-0.00823542
22	0x3b565903	0.0032706864
23	0xbd5da9ef	-0.05411714
24	0x3bbe643f	0.00581029
25	0x3a9bb629	0.001187985
26	0x3e55143f	0.20808505
27	0xbd9dd988	-0.077075064
28	0x3c8d849d	0.017275149
29	0xbc5c6379	-0.0134514505
30	0xbe149e58	-0.14513528
31	0xbdbc7e45	-0.092037715
32	0x3ddb3196	0.10702817
33	0xbc8bd4a9	-0.017069178
34	0xbe4e5d17	-0.20152698
35	0x3c9eb9a7	0.019375635
36	0x3bd2c8dc	0.0064326357
37	0x3c991340	0.018685937
38	0xbde91be5	-0.113822736
39	0x3d77c701	0.06049252
40	0x3f066aa5	0.52506477
41	0x3c74e8a8	0.014948048
42	0x3e3fcf34	0.18731385
43	0x3c245b92	0.010031598
44	0xbea14906	-0.31501025
45	0xbb50da24	-0.0031868303
46	0x3c604ed2	0.013690667
47	0xbdf5844d	-0.11988125
48	0x3dd75703	0.10514643
49	0xbdec8caf	-0.11550271
50	0x3bec4868	0.00721078
51	0xbc1436f1	-0.009046302
52	0x3c88f12f	0.016716568
53	0xba56d103	-0.00081945973
54	0x3a863716	0.0010239806
55	0xbd1e32b0	-0.038622558
56	0x3cc787c3	0.024356728
57	0xb9d8e4f0	-0.00041369302
58	0x3f673caf	0.9032697
59	0xbf971996	-1.1804683
60	0x3c7d8097	0.015472553
61	0xbbca1d6f	-0.0061680595
62	0xbf305dfc	-0.6889341
63	0xbd5a4665	-0.05328979
64	0xbde728c4	-0.11287072
65	0xbbc46e34	-0.0059945825
66	0xbe7f885e	-0.24954364
67	0xbd0765f0	-0.0330562
68	0x3c76c38d	0.015061271
69	0x3cb7ecba	0.022451747
70	0x3dfd4e80	0.12368488
71	0xbe00fd05	-0.1259652
72	0x3dc8d715	0.09806649
73	0xbc9e3a32	-0.019314859
74	0x3d946de9	0.07247526
75	0xbc8ea915	-0.017414609
76	0xbdf5728e	-0.1198474
77	0x3cc4b6d0	0.024012953
78	0x3e394549	0.18092836
79	0xbdcd8a6f	-0.1003617
80	0x3dac3b10	0.08409703
81	0x3e54498a	0.20731178
82	0x3b94f7d7	0.0045461464
83	0xbc92b88a	-0.01791026
84	0xbd11d9d8	-0.035608143
85	0x3c414fed	0.011798841
86	0xbb651711	-0.0034956376
87	0x3b818a7e	0.003953277
88	0x3c59fea4	0.01330534
89	0x38e4b3ff	0.00010905414
90	0xbe807a4b	-0.25093302
91	0x3ee5c783	0.44878778
92	0xbb663a59	-0.0035129993
93	0xbbc9f66c	-0.006163409
94	0x3e47b9f0	0.19504523
95	0x3e90efa4	0.2830783
96	0x3dcd81e3	0.100345396
97	0xbceb4a3a	-0.028721917
98	0xbe6378f2	-0.22214106
99	0x3bb1793a	0.0054160627
100	0x3c99bb73	0.01876614
101	0xbb18b82a	-0.002330313
102	0xbcab6c52	-0.020925675
103	0x3cf6ed3b	0.030142417
104	0x3f11d439	0.5696445
105	0xbce32657	-0.027728243
106	0x3e6f5524	0.23372322
107	0x3ca95c1c	0.020673804
108	0xbec8cb6d	-0.39217702
109	0x3cb4fae2	0.022092286
110	0x3d069d22	0.032864697
111	0xbe11bc23	-0.14231925
112	0x3df4f52a	0.11960824
113	0xbdbd6c13	-0.09249129
114	0x3d04e871	0.032448236
115	0xba3dd2ce	-0.000724119
116	0x3c6a328e	0.01429428
117	0xbb0fcf3b	-0.0021943587
118	0x3bab2b6a	0.005223681
119	0x3be2718c	0.0069105085
120	0xbc6f389a	-0.014600897
121	0xbbd56cd3	-0.006513217
122	0x3f5f0041	0.8710976
123	0xbf8e4c91	-1.1117116
124	0x3c91495e	0.01773518
125	0xbc2c7566	-0.010526037
126	0xbf2f96f8	-0.68589735
127	0xbe1c5119	-0.15265311
128	0x3bd14712	0.006386646
129	0x3aa4a3fd	0.0012561079
130	0xbed6e22e	-0.41969436
131	0xbd30068f	-0.042975005
132	0xbc0b3e59	-0.008498752
133	0x3d1c468c	0.038153216
134	0x3d4fe749	0.05075768
135	0xbe53e4b8	-0.20692718
136	0x3ee5e81c	0.44903648
137	0xbbc5bad3	-0.006034234
138	0x3c80e661	0.015734853
139	0xb89249cf	-6.9755704e-05
140	0xbd5b27b1	-0.05350465
141	0x3cea658c	0.028612874
142	0x3e334779	0.17507733
143	0xbd82017f	-0.063479416
144	0x3d704230	0.05865687
145	0x3e53e114	0.20691329
146	0xbc1486c5	-0.009065335
147	0x3bc010cb	0.005861377
148	0x3c08f443	0.008359018
149	0xbaab7745	-0.001308181
150	0x3be77797	0.007063817
151	0xbd2a71b0	-0.041612327
152	0x3cdc23e0	0.026872575
153	0xbbca39e3	-0.0061714514
154	0xbc58d187	-0.013233549
155	0x3e5a5478	0.21321285
156	0x3bbf5249	0.0058386666
157	0x3ba2e33a	0.004970935
158	0x3d53630b	0.051608127
159	0xbc4a95fb	-0.01236486
160	0xbd8f95b2	-0.07010974
161	0xbd097c61	-0.033565883
162	0xbe0d6005	-0.1380616
163	0x373bc98d	1.1192996e-05
164	0x3b38a264	0.0028172964
165	0x3be61a8e	0.0070222085
166	0x3e23e18b	0.16004007
167	0x3ddeb02e	0.10873447
168	0x3e380568	0.17970812
169	0xbc69cfb8	-0.014270715
170	0x3e9399f9	0.2882841
171	0x3bd6d9f4	0.0065567438
172	0xbef75490	-0.48306704
173	0x3aeb93af	0.001797309
174	0x3d9a3edc	0.07531521
175	0xbe2fa57b	-0.1715297
176	0x3e0f466b	0.13991706
177	0xbd75eec3	-0.060042154
178	0x3bd84d15	0.006600986
179	0xbc66ffba	-0.014099056
180	0xbc25de49	-0.010123798
181	0x3c98279b	0.018573573
182	0x3bea8b3f	0.0071577127
183	0x3d037c1e	0.03210079
184	0x3c323c79	0.010878676
185	0xbb8cae4f	-0.00429324
186	0x3f18d171	0.5969458
187	0xbf4cd638	-0.8001437
188	0x3af56a9d	0.001872379
189	0xbbdd8555	-0.006760279
190	0xbee03607	-0.4379122
191	0x3e0a650b	0.13515107
192	0x3e0c003e	0.13671967
193	0x3bcbdcca	0.0062213885
194	0xbea2a846	-0.31769007
195	0xbbb81091	-0.0056172092
196	0xbcccc75f	-0.024997411
197	0x3ce2b42f	0.027673809
198	0xbebabc60	-0.36471844
199	0xbe29de8b	-0.165888
200	0x3f0fa658	0.56113195
201	0x3d833c1e	0.06407951
202	0xbd149c33	-0.036281776
203	0xbc9ede64	-0.019393153
204	0x3d823911	0.06358541
205	0x3a52e3cd	0.0008044809
206	0x3d954cff	0.072900765
207	0xbbcfc55d	-0.006340666
208	0x3c4d9654	0.012548048
209	0x3dc5e60a	0.09663017
210	0xbbac62dc	-0.0052608084
211	0xbc20200d	-0.0097732665
212	0xbaee6409	-0.0018187772
213	0xba581088	-0.00082422094
214	0xb9ea3f83	-0.00044679278
215	0xbdc3c7c0	-0.09559584
216	0x3d2547bf	0.040351626
217	0x3c3f82e8	0.011688925
218	0x3e5d12a2	0.21589139
219	0xbdf0db42	-0.1176057
220	0x3c48ebff	0.012263297
221	0xbc38a72e	-0.0112703275
222	0xbe01c68b	-0.12673394
223	0x3d42af03	0.047530185
224	0xbe4cb679	-0.19991483
225	0xbc8490b2	-0.016182277
226	0xbd8048c2	-0.062638775
227	0xbc4c80cb	-0.0124818785
228	0x3c88b672	0.01668856
229	0x3c17eed7	0.009273252
230	0x3e90e7dc	0.28301895
231	0x3e14b9a2	0.14523938
232	0xbc381f2a	-0.011237899
233	0xbc86d07d	-0.016456837
234	0x3e94c948	0.29059815
235	0xbc6126fd	-0.013742206
236	0xbef837e3	-0.48480138
237	0xbc98f770	-0.018672675
238	0x3db361ea	0.0875891
239	0xbe3613ef	-0.17781042
240	0x3e0f6a61	0.14005424
241	0xbd1bdaed	-0.03805058
242	0xbc90a4d0	-0.017656714
243	0xbd13a218	-0.036043257
244	0xbc38b27d	-0.011273024
245	0x3c6779e0	0.014128178
246	0xbaa860a8	-0.0012846189
247	0x3cf3094c	0.029667519
248	0x3cb86b06	0.02251197
249	0x3bf8b6fd	0.0075901733
250	0x3ee4b127	0.44666407
251	0xbf248abc	-0.6427419
252	0xbb9255db	-0.004465801
253	0x3bd3535a	0.0064491453
254	0xbead39df	-0.33833215
255	0x3e9ce085	0.30640045

last_conv3.0.bias f4 [10]
0	0xbdfed4d8	-0.124429405
1	0x3f7c94dd	0.9866465
2	0x3e62b3e1	0.22138931
3	0x3f636330	0.88823223
4	0xbd2c3a5d	-0.042047847
5	0x3f940205	1.1563116
6	0x3bbe749c	0.0058122408
7	0x3fb0c91c	1.3811374
8	0x3eabf213	0.33583125
9	0x3fa611c4	1.2974172
