网络参数/R_net.pt (torch_old, 414246 bytes, 29 tensors)

pre_conv.0.weight f4 [28, 3, 3, 3]
0	0x3f7f9674	0.9983895
1	0xbf086743	-0.53282565
2	0xbf402a77	-0.75064796
3	0xbf4224d1	-0.7583743
4	0xbfa7e423	-1.3116497
5	0x3e97c81d	0.29644862
6	0xbe9a3621	-0.30119422
7	0x3f0d98bd	0.55311185
8	0x3f866fc1	1.0502855
9	0x3f6cd62c	0.925143
10	0xbf3b63f3	-0.73199385
11	0xbeefceb7	-0.46837398
12	0xbf8dc801	-1.1076661
13	0xbfe63cc2	-1.7987292
14	0x3e3ea1c3	0.18616395
15	0xbe5ef6d4	-0.21773845
16	0x3f4c70e8	0.7985978
17	0x3fd53fc1	1.6660081
18	0x3f8c5b4d	1.0965363
19	0xbe73d617	-0.23812138
20	0xbf071c49	-0.52777535
21	0xbf2db327	-0.6785149
22	0xbfa2ae40	-1.2709427
23	0x3e7fffc5	0.24999912
24	0xbe9f11d5	-0.31068292
25	0x3f269164	0.650656
26	0x3fb82fa3	1.4389538
27	0x3fd2d510	1.6471272
28	0x3f921599	1.1412841
29	0x3e64e184	0.22351652
30	0x3f8a3629	1.0797778
31	0xbde609a0	-0.112323046
32	0xbf8e81a0	-1.1133308
33	0xbdf152dc	-0.11783382
34	0xbf589053	-0.8459522
35	0xbfc0f4c4	-1.5074697
36	0x3fdd1140	1.7270889
37	0x3f9026fb	1.1261896
38	0x3e36a860	0.17837667
39	0x3f7ce49d	0.98786336
40	0xbed83564	-0.42228234
41	0xbfb1e747	-1.3898705
42	0xbe8e844b	-0.27835307
43	0xbf86a9ad	-1.0520531
44	0xbfbcac49	-1.4740077
45	0x3ee2432a	0.44191867
46	0x3e8a281b	0.26983723
47	0x3d4921fc	0.049104676
48	0x3f23e399	0.6401916
49	0xbc11234c	-0.008858513
50	0xbec83959	-0.39106253
51	0xbedad62f	-0.42741534
52	0xbf1578e5	-0.58387595
53	0x3e4b101d	0.19830365
54	0x3d9a791d	0.07542632
55	0x3e3b4f65	0.18292005
56	0x3e428829	0.18997253
57	0xbe42f11d	-0.1903729
58	0xbd6434c0	-0.05571437
59	0xbeddcb15	-0.43319002
60	0x3fc8ff15	1.5702845
61	0x3fb2e875	1.397719
62	0x3fb2da8e	1.3972948
63	0xbf81f6ae	-1.0153406
64	0xbf740eee	-0.9533528
65	0xbf3ab4e0	-0.72932243
66	0xbfbc11d8	-1.4692945
67	0xbf6107f3	-0.87902755
68	0xbf49a052	-0.78760254
69	0xbf9d30c7	-1.2280511
70	0xbf8f35a1	-1.1188241
71	0xbf3b2643	-0.7310526
72	0x3f481a2d	0.7816494
73	0x3f4064f3	0.75154036
74	0x3ee92eb3	0.4554344
75	0x3f74a824	0.9556906
76	0x3fa1ae70	1.2631359
77	0x3f330972	0.6993629
78	0x3be9d969	0.007136513
79	0xbeef5009	-0.4674075
80	0xbf081203	-0.53152484
81	0xbf3acc38	-0.72967863
82	0xbefbc131	-0.4917083
83	0x3f3eae33	0.74484557
84	0xbf648d02	-0.8927766
85	0xbee85658	-0.45378375
86	0x3ec9fdcf	0.39451453
87	0x3eb44ca8	0.35214734
88	0x3ef055fd	0.46940604
89	0x3f71451c	0.9424608
90	0xbfb3a237	-1.4033879
91	0xbfa961a9	-1.3232929
92	0xbe2372d5	-0.15961774
93	0xbf7b2a5c	-0.9811151
94	0xbe1d5640	-0.15364933
95	0x3f858ca1	1.0433542
96	0x3e4e0591	0.20119311
97	0x3f910baa	1.1331685
98	0x3fb73972	1.4314406
99	0xbf9c00bf	-1.2187728
100	0xbfc6df77	-1.5536946
101	0xbea3fcad	-0.32028714
102	0xbf63ab7e	-0.8893355
103	0xbcffc3c2	-0.031221274
104	0x3f7b445d	0.9815119
105	0x3efb960f	0.49137923
106	0x3fa29f31	1.2704831
107	0x3fbee911	1.4914876
108	0x3d50d87d	0.05098771
109	0xbebdd56a	-0.37076885
110	0x3e94cfed	0.29064885
111	0x3e3b6875	0.18301566
112	0xbfa6d69d	-1.3034245
113	0xbfd636c2	-1.6735461
114	0x3fbfd833	1.4987854
115	0x3f37a510	0.7173624
116	0xbd49c84f	-0.049263295
117	0xbe02d3f4	-0.12776166
118	0xbe81d45a	-0.25357324
119	0x3ebce367	0.36892244
120	0xba8f2b91	-0.0010923018
121	0xbf9462a2	-1.15926
122	0xbfe71c0f	-1.8055438
123	0x3febd8d7	1.8425549
124	0x3f5c25a3	0.8599493
125	0x3e1eaa66	0.1549469
126	0xbeaa0ab5	-0.33211294
127	0xbeac2e2f	-0.33628985
128	0x3ea2cf4a	0.31798774
129	0xbe4aabff	-0.19792174
130	0xbf4a8208	-0.7910466
131	0xbfa1105b	-1.2583116
132	0x3fb0d637	1.3815373
133	0x3f440783	0.7657396
134	0x3e9596b3	0.29216537
135	0xbe8ec277	-0.2788274
136	0x3d686e73	0.056745958
137	0xbd14ccaf	-0.036328014
138	0xbfbb8d6a	-1.4652531
139	0x3f565005	0.8371585
140	0x3faf5aca	1.3699582
141	0xc02dbd52	-2.7146802
142	0xbca1e6df	-0.019763408
143	0x3fbe3a2b	1.4861501
144	0x3f39a5df	0.72518724
145	0xbe92bcd9	-0.28659704
146	0xbeadc0ae	-0.33936065
147	0xbecc01d5	-0.39845148
148	0x3f29da81	0.66349036
149	0x3f4d2104	0.801285
150	0xbf86ffb3	-1.0546783
151	0x3dfd0e5d	0.12356255
152	0x3fa49fda	1.2861283
153	0x3f30b2c0	0.6902275
154	0xbe983c8d	-0.29733697
155	0xbf479b8a	-0.7797171
156	0xbedc5e08	-0.4304049
157	0x3d5485b2	0.051885314
158	0xbeaf8983	-0.342846
159	0xbf36c6ea	-0.7139727
160	0x3d890927	0.06691199
161	0x3eee2580	0.46512985
162	0xbe652e22	-0.2238088
163	0xbfa85a48	-1.3152552
164	0x3f901b45	1.1258322
165	0xbed949ca	-0.4243911
166	0xbf96fee6	-1.1796539
167	0x3f1332ca	0.5749937
168	0x3df4d91f	0.11955475
169	0xbf43cc3b	-0.76483506
170	0x3fa0c105	1.2558905
171	0x3e5b2b54	0.21403247
172	0xbfb6a45b	-1.4268907
173	0x3fe92c96	1.8216732
174	0xbd0f2b25	-0.034953255
175	0xbf9accc7	-1.2093743
176	0x3fa6a9ba	1.3020546
177	0xbda0c7b9	-0.07850594
178	0xbf7fc81a	-0.99914706
179	0x3f95050e	1.1642168
180	0x3d4de23a	0.050264575
181	0xbf9285a7	-1.1447037
182	0x3f7ad6eb	0.9798419
183	0x3e4576a0	0.19283533
184	0xbe42feef	-0.19042562
185	0x3f49b1a4	0.78786683
186	0xbea22f0b	-0.31676516
187	0xbf5c3dff	-0.860321
188	0x3ea8f7b9	0.33001497
189	0xbf7ae765	-0.9800933
190	0x3e1f5bd1	0.15562369
191	0xbd6a26b8	-0.05716583
192	0xbfa45645	-1.2838827
193	0x3eb267db	0.3484486
194	0xbf0a3a33	-0.53995055
195	0xbed39e51	-0.41331723
196	0x4014a13e	2.3223414
197	0x40133439	2.3000624
198	0x3f5d60e7	0.86475986
199	0xbd06b877	-0.032890763
200	0xbf413805	-0.75476104
201	0xbe5518a4	-0.20810181
202	0xbfa09622	-1.2545817
203	0xbff2153a	-1.8912728
204	0x3d3e989c	0.04653226
205	0xbde870b8	-0.113496244
206	0xbdcdf702	-0.100568786
207	0x3f1f4aa4	0.6222327
208	0x3ecc6319	0.39919356
209	0xbec1f3e7	-0.37881395
210	0x3e15d405	0.1463166
211	0x3ef68105	0.4814531
212	0xbf1c55c4	-0.6106837
213	0x3f0f3756	0.5594381
214	0x3f2999ed	0.662505
215	0x3ed89f03	0.42308816
216	0xbfef5f14	-1.870089
217	0xbf7b4247	-0.98148006
218	0xbfc18716	-1.511935
219	0x3f196cb5	0.599315
220	0x3f827259	1.0191146
221	0xbd3e62df	-0.04648101
222	0xbe888645	-0.2666494
223	0xbee29a87	-0.4425852
224	0xbf877346	-1.0582054
225	0xbfa72131	-1.3057004
226	0xbf508425	-0.81451637
227	0xc0100aac	-2.2506514
228	0x3f958f65	1.1684386
229	0x3edd7735	0.4325501
230	0xbf827294	-1.0191216
231	0x3f00a3e3	0.5025007
232	0xbf64130d	-0.8909157
233	0xbfdd2da7	-1.7279557
234	0xbf9fe5f5	-1.2492052
235	0x3f41b082	0.75659955
236	0x3f2d08c1	0.6759148
237	0x3f607403	0.8767702
238	0x3f34569f	0.70444673
239	0xbf17c34c	-0.59282374
240	0x3edeff71	0.4355426
241	0xbf220b0f	-0.63298124
242	0xbf45ab40	-0.7721443
243	0x3e83c333	0.25734863
244	0xbdb262e9	-0.08710272
245	0xbe7ad321	-0.24494602
246	0x3f9ba6ec	1.2160316
247	0x3f4e79b2	0.8065444
248	0x3f9160fc	1.1357722
249	0xbf87d07f	-1.0610503
250	0xbf240ffc	-0.6408689
251	0xbf647691	-0.8924342
252	0xbe71cc63	-0.23613124
253	0xbec0f586	-0.3768732
254	0xbef752ce	-0.48305362
255	0x3f839f0d	1.0282913

pre_conv.0.bias f4 [28]
0	0x3de41be9	0.11138136
1	0x3dc561c8	0.09637791
2	0x3e515358	0.2044195
3	0x3f03a57a	0.5142437
4	0xbe502c1a	-0.20329323
5	0x3ef55aa4	0.47920716
6	0xbf0f2d76	-0.5592874
7	0x3c42bf9a	0.011886502
8	0xbd1f3836	-0.038871966
9	0xbe4d36f0	-0.20040488
10	0xbddfead2	-0.1093346
11	0xbebb4cc5	-0.36582008
12	0x3e0ba9e9	0.13639034
13	0x3c7ea09d	0.015541223
14	0xbebbcbbe	-0.3667888
15	0x3eff17d0	0.49822855
16	0x3e9eabd2	0.30990463
17	0x3eceb72d	0.40374127
18	0xbf1d1d9d	-0.6137331
19	0xbc9b36ec	-0.018947087
20	0xbe71493d	-0.23563094
21	0xbe06476f	-0.13113187
22	0xbe6bb655	-0.23018773
23	0xbe7ba4a0	-0.24574518
24	0x3e03a644	0.12856394
25	0x3dc87b45	0.09789137
26	0xbec4d96f	-0.3844714
27	0xbe22c9c0	-0.15897274

pre_conv.1.weight f4 [28]
0	0x3f844074	1.033217
1	0x3fca0773	1.5783523
2	0x3f1f3b97	0.622003
3	0x3f7ba9f8	0.98306227
4	0x3fa16178	1.260787
5	0x3f56895b	0.8380334
6	0x3faae594	1.3351312
7	0x3f507f58	0.8144431
8	0x3fd13625	1.6344649
9	0x3f927362	1.1441462
10	0x3f99ebae	1.2025049
11	0x3f544f1a	0.829332
12	0x3f59cafb	0.8507535
13	0x3f9f8085	1.2461096
14	0x3facc9ee	1.3499124
15	0x3f879cc7	1.059472
16	0x3fe00e8c	1.7504439
17	0x3f58b2ba	0.84647715
18	0x3f66d75f	0.9017238
19	0x3fadf8ee	1.3591592
20	0x3fc565d0	1.5421696
21	0x3f605e74	0.87644124
22	0x3fb1b56f	1.3883494
23	0x3f8091ef	1.0044535
24	0x40051d9a	2.0799317
25	0x3f1df3a5	0.616999
26	0x3f2934f9	0.66096455
27	0x3fde7e25	1.7382246

pre_conv.1.bias f4 [28]
0	0x3d3f4cd7	0.04670414
1	0x3843c929	4.6678968e-05
2	0xbf23401c	-0.637697
3	0x3efa89c0	0.4893322
4	0x3f384ca0	0.7199192
5	0x3f666e53	0.9001209
6	0xbf0d2029	-0.551272
7	0x3ec0df81	0.3767052
8	0xbff16cd2	-1.8861334
9	0x3f5558b5	0.8333848
10	0x3e11e876	0.14248833
11	0x3e834926	0.25641745
12	0x3f95282a	1.1652882
13	0xbf958dc0	-1.1683884
14	0xbd8e4b90	-0.06948006
15	0xbe1142b7	-0.14185606
16	0x3ec0b017	0.37634346
17	0x3f89f722	1.0778544
18	0x3ebae861	0.36505416
19	0x3e8794c0	0.26480675
20	0xbf1436c1	-0.5789605
21	0xbec5292d	-0.38507977
22	0xbf430128	-0.7617364
23	0xbeca896e	-0.39557976
24	0x3d3c0a17	0.04590806
25	0x3f795d0c	0.97407603
26	0x3df0ca2e	0.11757313
27	0xbfb31952	-1.3992102

pre_conv.1.running_mean f4 [28]
0	0xbf2ff8b0	-0.6873884
1	0x3df291d5	0.118442215
2	0x3df89766	0.12138252
3	0x3f24582f	0.6419706
4	0xbf652c00	-0.89520264
5	0x3e942181	0.2893181
6	0xbf734299	-0.95023495
7	0x3ec5cf9c	0.38634956
8	0xc0a1da8a	-5.057927
9	0x3dffc86c	0.12489399
10	0xbb80ffb2	-0.0039367313
11	0xbeff77e3	-0.49896154
12	0x3fd258de	1.643337
13	0x404d67ae	3.209453
14	0xbe928b89	-0.28622082
15	0x3e7ee8b0	0.2489345
16	0x3efb86ed	0.49126378
17	0xbc04c760	-0.008104175
18	0xbf01bbb8	-0.5067706
19	0xbb97ae69	-0.0046289456
20	0xbe8b369b	-0.27190098
21	0xbfc491de	-1.5357015
22	0xbfa638d6	-1.2986095
23	0x40464520	3.097969
24	0x3d5d80fe	0.054078095
25	0xbc171a6d	-0.009222609
26	0xbf0e1654	-0.5550282
27	0x3cd2ea0a	0.025746364

pre_conv.1.running_var f4 [28]
0	0x3f52e087	0.8237385
1	0x40229514	2.540349
2	0x3e75dead	0.24010725
3	0x4027b4fd	2.6204216
4	0x3fba47b2	1.455313
5	0x3f8a3340	1.079689
6	0x3facce92	1.350054
7	0x3f2afc04	0.66790795
8	0x40d69d92	6.7067347
9	0x3f73ceaa	0.9523722
10	0x4020e298	2.5138302
11	0x3f3d1b1b	0.73869485
12	0x3f97725d	1.1831776
13	0x404e69d5	3.2252095
14	0x40186eb1	2.381756
15	0x3f79dabf	0.97599405
16	0x4027a68f	2.619541
17	0x3f289cba	0.65864146
18	0x3f5c4ed2	0.8605777
19	0x4023820d	2.5548127
20	0x3fb49a2d	1.4109551
21	0x3fc14938	1.510047
22	0x401ff568	2.4993534
23	0x402ceaa7	2.701822
24	0x401764bc	2.3655233
25	0x3e6fc120	0.23413515
26	0x3e021b15	0.12705643
27	0x3fcde42f	1.6085261

pre_conv.4.weight f4 [48, 28, 3, 3]
0	0xbf2d7c8f	-0.67768186
1	0x3f5c26cc	0.859967
2	0xbe27bda8	-0.16380942
3	0x4037feea	2.8749337
4	0x3f085d31	0.532672
5	0xbe1d88b7	-0.15384184
6	0x3f53a4da	0.8267342
7	0x3d6e1d41	0.058133367
8	0x3ec90fb5	0.39269796
9	0x3f727cfc	0.9472196
10	0xbe296e61	-0.16546012
11	0x3f657bba	0.89641917
12	0x3f2bd8cd	0.67127687
13	0x3e51baa0	0.20481348
14	0x3fbe522f	1.486883
15	0xbe9b029e	-0.30275434
16	0xbf4e0b7f	-0.8048629
17	0xbebe8cfc	-0.37216938
18	0xbf58b462	-0.8465024
19	0xbdc4ef2b	-0.0961593
20	0x3ed22a9e	0.4104814
21	0xbbab0d94	-0.0052201245
22	0xbede1a53	-0.4337946
23	0x3f15f68f	0.58579344
24	0x3e52d3ce	0.2058861
25	0xbe678081	-0.22607614
26	0xbe7fe3e7	-0.24989282
27	0x3f79c2a4	0.97562623
28	0xbf3aa6a5	-0.7291053
29	0x3e30838e	0.17237684
30	0x3f5b1aea	0.8558794
31	0x3f1df270	0.61698055
32	0x3e96acdc	0.29428756
33	0xbe6d4604	-0.2317124
34	0xbf35e303	-0.7104952
35	0xbf88f6c6	-1.0700309
36	0x3e20d251	0.1570523
37	0xbf03576f	-0.5130529
38	0xbf0b93d0	-0.5452242
39	0x3f5c613e	0.8608588
40	0xbf70c98c	-0.94057536
41	0xbf916aff	-1.1360778
42	0x3fd0792b	1.6286978
43	0x3d152cdf	0.036419746
44	0x3f0ea164	0.5571501
45	0x3e05ce1a	0.13066903
46	0xbe728f2b	-0.23687427
47	0x3f335b1a	0.70060885
48	0x3f7bd1e7	0.9836716
49	0x3ffd41eb	1.9785742
50	0xbd0ea4a7	-0.034824993
51	0xbd55390d	-0.05205636
52	0x3e4b7deb	0.19872253
53	0x3f4eaee6	0.80735624
54	0xc030036d	-2.750209
55	0x3efdba1e	0.4955606
56	0xbf651c42	-0.89496243
57	0xbf51ce9d	-0.8195589
58	0xbf033e68	-0.512671
59	0xbf2e81b5	-0.6816667
60	0x3e3e1f4e	0.1856663
61	0xbfcb00c5	-1.585961
62	0xbff814bb	-1.9381326
63	0x3f7d7cc7	0.9901852
64	0x3f7d20d5	0.9887822
65	0xbc9b753f	-0.018976806
66	0xbd213b52	-0.039363213
67	0xbf345cf5	-0.7045434
68	0xbf0b9fac	-0.54540515
69	0x3ed04e62	0.406848
70	0xbf7ee0d1	-0.9956179
71	0x3e0280ae	0.127444
72	0x3f3e68c1	0.7437859
73	0x3f057fca	0.52148116
74	0x3f050e15	0.5197461
75	0x3f8265db	1.0187334
76	0x3f34f18a	0.7068106
77	0x3f3772ba	0.71659434
78	0x3ef6fca6	0.4823963
79	0xbf2cd146	-0.67506826
80	0x3e6f0edc	0.23345512
81	0x3f3c0393	0.73442954
82	0x3e57d4a1	0.21077205
83	0x3f51e1c3	0.8198511
84	0x400c6b2a	2.1940408
85	0xbfca57fe	-1.5808103
86	0xc0030764	-2.047326
87	0xbf9a556b	-1.2057317
88	0x3e737e44	0.23778635
89	0x3edd449a	0.432164
90	0x3e752ae4	0.23942143
91	0xbe8f818d	-0.28028527
92	0xbec94d4e	-0.3931679
93	0x3d836120	0.064150095
94	0xbd0dbc5e	-0.03460347
95	0x3fd5c675	1.6701189
96	0xbf2de7ce	-0.6793183
97	0xbf0f5fa6	-0.5600532
98	0x3d970644	0.07374242
99	0xbea63a62	-0.32466418
100	0x3f319288	0.69364214
101	0xbf0b4d63	-0.5441496
102	0x3f314db3	0.69259185
103	0xbecf9a23	-0.40547284
104	0xbf9d534d	-1.2291046
105	0x3e251289	0.16120352
106	0xbee92e54	-0.45543158
107	0xbe92806f	-0.28613612
108	0xbe1957f1	-0.14974953
109	0xbf06d97e	-0.52675617
110	0xbf087601	-0.5330506
111	0x3f05a0c0	0.5219841
112	0xbe469e9c	-0.19396442
113	0xbf0434a8	-0.5164285
114	0x3f35c9c9	0.71011025
115	0x3e79a5b8	0.24379623
116	0x3e8830d5	0.26599756
117	0xbf0bacd2	-0.5456058
118	0x3ebf1cf5	0.3732678
119	0xbe2b2064	-0.16711575
120	0x3f0e4abf	0.55582803
121	0xbe84aeeb	-0.25914702
122	0x3f2e0c6f	0.6798772
123	0xbeafdf74	-0.3435017
124	0x3f49b47e	0.78791034
125	0xbfe027ec	-1.7512183
126	0x3fe14579	1.7599326
127	0xbe91e795	-0.28496996
128	0xbe5e1378	-0.21687114
129	0x40006089	2.005892
130	0xbbc6cb18	-0.006066691
131	0xbf24c2d8	-0.6435981
132	0x3e40e8e1	0.18838836
133	0x3fc83128	1.5640001
134	0x3ed8ad7f	0.42319867
135	0x3bb46242	0.0055048773
136	0xbff99066	-1.9497192
137	0xbe67fbd1	-0.22654654
138	0x4046660b	3.0999782
139	0xbfd2e724	-1.6476789
140	0xbff95e66	-1.9481933
141	0x3f4e5065	0.8059142
142	0xbe801e76	-0.2502324
143	0xbe77a0eb	-0.24182479
144	0x3dcf2972	0.10115327
145	0xbf2099b3	-0.62734526
146	0xbdfda694	-0.12385288
147	0xbf9eecf8	-1.2416067
148	0x3f8ab2d9	1.083583
149	0x3f7723ff	0.965393
150	0xbe796ef6	-0.24358734
151	0x3f8cf2aa	1.1011555
152	0xbd7c3a5e	-0.0615791
153	0x3f6a4d7e	0.91524494
154	0x3f0300fa	0.51173365
155	0xbf711b37	-0.9418215
156	0x3fd1a23e	1.6377637
157	0x3f0b099b	0.5431153
158	0xbf4e83cc	-0.80669856
159	0x3fe47a32	1.7849791
160	0x3f9441a1	1.1582528
161	0x3c4a9def	0.012366756
162	0xbe07204f	-0.13195919
163	0xbf655876	-0.89588106
164	0x3c7137ca	0.014722774
165	0x3f7c6af3	0.9860069
166	0x3ebb8503	0.36624917
167	0xbe75f03b	-0.24017422
168	0xbd07184d	-0.03298216
169	0x3f00cb1c	0.5030992
170	0x3aebeeee	0.0018000284
171	0xbf62d4e8	-0.8860612
172	0xbd0c4de9	-0.03425399
173	0x3d7daa22	0.06192983
174	0x3f5c9ee1	0.8617993
175	0x3d8953ca	0.067054346
176	0xbede9998	-0.43476558
177	0x400218f9	2.0327742
178	0x3e6702e3	0.22559695
179	0xbf405987	-0.7513661
180	0xbfb0f07b	-1.3823389
181	0x3ee637f9	0.4496458
182	0xbfae7ad6	-1.3631237
183	0x3eb4fe8e	0.3535046
184	0x3e77517e	0.2415218
185	0xbfdfc937	-1.7483281
186	0xbebb672f	-0.3660216
187	0x3ed647ae	0.41851562
188	0xbe89aef1	-0.26891282
189	0x3f4c1a89	0.7972799
190	0x3edf8aa6	0.43660468
191	0xbf0adaa8	-0.5423989
192	0x3e8d7ccb	0.27634272
193	0x3e5bb866	0.21457061
194	0xbf3cff93	-0.73827475
195	0x3f7bc72d	0.98350793
196	0x3e32c0b3	0.17456321
197	0xbfa5de41	-1.2958452
198	0xbfc74e22	-1.5570719
199	0x3d8bac7f	0.068200104
200	0x3d95c451	0.07312835
201	0xbf515387	-0.8176808
202	0xbdc82cf9	-0.09774203
203	0x3d578f48	0.052626878
204	0xbfd1f40f	-1.6402606
205	0xbfd05502	-1.6275942
206	0xbf55088b	-0.8321616
207	0x3dc2ebee	0.09517656
208	0xbf06642f	-0.5249662
209	0x3f848824	1.0354047
210	0x3d34f5f1	0.04417986
211	0xbe9b9036	-0.30383462
212	0xbfa3a28c	-1.278398
213	0x3f9d1ebe	1.2275007
214	0x3f0bfd82	0.546837
215	0xbf9c41a3	-1.2207531
216	0x3ffdad81	1.9818574
217	0xbed9ccda	-0.42539102
218	0xbec30b13	-0.38094386
219	0x3fdfbadd	1.7478901
220	0xbf53f57e	-0.82796466
221	0xbe70ed2b	-0.23527972
222	0x400ebf83	2.230439
223	0x3fc96442	1.5733721
224	0x3fa59f20	1.2939186
225	0x3eceb004	0.40368664
226	0x3ed1a57c	0.40946567
227	0xbfcbdf57	-1.5927533
228	0x3f6d2814	0.9263928
229	0x3f2d5e16	0.6772169
230	0xbfb19b9a	-1.3875611
231	0xbd16b246	-0.03679111
232	0x3f3486e2	0.70518315
233	0xbec0e820	-0.37677097
234	0xbe92ab14	-0.28646147
235	0x3e58b98c	0.2116453
236	0x3d7d2a1e	0.061807744
237	0x3f184cb7	0.5949206
238	0xbeb40fa8	-0.35168195
239	0xbf211ccb	-0.6293456
240	0x3fd3d57c	1.6549525
241	0xbf8c30ef	-1.0952433
242	0x3db93068	0.09042436
243	0xc0543522	-3.315743
244	0xbf92467a	-1.1427758
245	0x3dbbbeb6	0.091672346
246	0xbef94357	-0.4868419
247	0xbf173894	-0.59070706
248	0xbf0c33d5	-0.5476659
249	0xbf3ce55a	-0.7378746
250	0xbfdee626	-1.7413986
251	0xbed91ae9	-0.42403343
252	0xbe80d910	-0.25165606
253	0xbf3d8504	-0.7403109
254	0x3f58de38	0.8471408
255	0x3feb8984	1.8401341

pre_conv.4.bias f4 [48]
0	0xbd43ab51	-0.047770802
1	0x3d0048b4	0.031319335
2	0xbd14e847	-0.03635433
3	0xbd43734b	-0.047717374
4	0xbb24534e	-0.0025074068
5	0x3bca06d9	0.006165367
6	0x3dad55f2	0.084636584
7	0xbd78ec26	-0.060772084
8	0xbc71c280	-0.014755845
9	0x3d060fe7	0.03273001
10	0xbd69d5ab	-0.057088535
11	0x3d9d4c82	0.07680608
12	0x3da267b7	0.07929938
13	0x3cc317e9	0.023815112
14	0x3ce5137b	0.02796339
15	0xbcc6ae98	-0.024253175
16	0x3cb9fa17	0.02270226
17	0x3c92d9bb	0.017926088
18	0xbc1b4fb3	-0.009479451
19	0xbdab838e	-0.083747014
20	0xbceece26	-0.029151034
21	0x3d9e6f8f	0.07736122
22	0xbc573858	-0.013135992
23	0x3d0f1f3d	0.0349419
24	0x3ca60b71	0.020269128
25	0xbcf1eac3	-0.029530888
26	0x3d762ce7	0.060101416
27	0x3d4e6fda	0.05039964
28	0x3c31a012	0.010841386
29	0x3c3342e9	0.010941246
30	0xbd8040a0	-0.06262326
31	0xbd8f6a80	-0.07002735
32	0x3cf592bf	0.0299772
33	0x3d2a5b18	0.04159078
34	0xbd6be441	-0.057590727
35	0x3bc72bd9	0.006078225
36	0x3b8425a4	0.0040328074
37	0xbcfa4953	-0.030552542
38	0x3b993d18	0.0046764724
39	0x3d48e831	0.04904956
40	0x3d0ee24b	0.03488378
41	0x3c4e38c6	0.012586778
42	0xbd173ca5	-0.03692307
43	0xb9f10605	-0.00045971587
44	0x3d91cfb2	0.07119693
45	0x3d8e9e78	0.06963819
46	0x3d9ee596	0.07758634
47	0xbd349e69	-0.044096384

pre_conv.5.weight f4 [48]
0	0x3f42f942	0.7616159
1	0x3f2cc439	0.6748691
2	0x3fd5ded2	1.6708624
3	0x3fee132d	1.8599602
4	0x3fa4dae6	1.2879303
5	0x3f6ee652	0.9332019
6	0x3f32421d	0.6963213
7	0x3fd5663a	1.6671822
8	0x3fe5488c	1.7912765
9	0x3fbe1500	1.4850159
10	0x3f9195b7	1.1373814
11	0x3fb93d7d	1.447189
12	0x3fdcf16c	1.7261176
13	0x400ec807	2.2309587
14	0x3f823da3	1.017506
15	0x3fa5baa2	1.2947581
16	0x3f5783a5	0.8418525
17	0x3f9c5163	1.2212337
18	0x3fb648d3	1.4240974
19	0x3f83063d	1.0236279
20	0x400d1148	2.2041798
21	0x3fd46c42	1.6595538
22	0x3facd867	1.3503541
23	0x3f8fcb20	1.1233864
24	0x3fc0bdf6	1.5057971
25	0x3f54feea	0.8320147
26	0x3fb60d62	1.4222834
27	0x3f392388	0.7231984
28	0x3fba3c2c	1.4549613
29	0x3fb94ede	1.4477193
30	0x3f7353e8	0.95049906
31	0x3fa6c3e0	1.3028526
32	0x3fde9048	1.7387781
33	0x3fb9697d	1.4485317
34	0x3fc1c519	1.5138274
35	0x3fa08414	1.2540307
36	0x3f67fb5b	0.90617913
37	0x3fb0d275	1.3814226
38	0x3f932707	1.1496285
39	0x401bd5b2	2.434918
40	0x3fe4f3eb	1.7886938
41	0x3fa7481e	1.3068883
42	0x3fa16cb1	1.2611295
43	0x3fb9ffa5	1.4531142
44	0x3fbaadbf	1.4584273
45	0x3f97fd71	1.1874219
46	0x3fd75912	1.6824057
47	0x3f90a61c	1.1300693

pre_conv.5.bias f4 [48]
0	0x3d9a290d	0.07527361
1	0x3f489a49	0.7836042
2	0xbf67ad61	-0.9049893
3	0xbf44d888	-0.768929
4	0x3dd37779	0.10325522
5	0xbe68a01f	-0.22717331
6	0x3f012d5f	0.50459856
7	0xbf4eb443	-0.8074381
8	0xbf2a940c	-0.6663215
9	0xbf2a9932	-0.6664001
10	0x3dd30789	0.103041716
11	0xbe3d64d2	-0.18495491
12	0xbf1c5d34	-0.61079717
13	0xbf983cc3	-1.1893543
14	0x3f955666	1.1666992
15	0xbeef81f0	-0.46778822
16	0x3d69b271	0.05705494
17	0xbe3e2a80	-0.185709
18	0xbe8e42f9	-0.2778547
19	0xbc99b081	-0.018760921
20	0xbf972fcc	-1.1811461
21	0xbf7a3d21	-0.97749525
22	0x3f2b6227	0.66946644
23	0xbefaf954	-0.49018347
24	0xbf375186	-0.7160877
25	0xbd7c6c3b	-0.061626654
26	0xbe018026	-0.12646541
27	0x3d9fe607	0.07807546
28	0xbedf3335	-0.43593755
29	0x3df93d7e	0.12169932
30	0x3c891fe4	0.01673884
31	0xbeacdc14	-0.33761656
32	0xbf34cc18	-0.7062392
33	0xbf432d00	-0.7624054
34	0xbebd8971	-0.37018922
35	0x3e10420f	0.140877
36	0xbe036654	-0.12832004
37	0xbe0eb789	-0.139372
38	0xbe92f054	-0.2869898
39	0xbf813cd0	-1.0096684
40	0xbf7a5139	-0.97780186
41	0xbee3fb3d	-0.44527617
42	0x3bc05df9	0.0058705774
43	0x40128f5b	2.2899997
44	0xbf58fcfb	-0.8476102
45	0xbe02d626	-0.12777004
46	0x3d6b1898	0.0573965
47	0x3f113142	0.56715786

pre_conv.5.running_mean f4 [48]
0	0x41af3358	21.90007
1	0x41b1c9ab	22.22347
2	0xc14231ee	-12.13719
3	0xc200febb	-32.24876
4	0xc0c38ee3	-6.111192
5	0xc0b3ae31	-5.6150136
6	0x419f8dd6	19.944256
7	0xc1c2d0ef	-24.352018
8	0xc1afd49f	-21.978819
9	0xc11502e8	-9.31321
10	0xc0fbbc6e	-7.8667517
11	0xc0a0363d	-5.006621
12	0xc1c648be	-24.785519
13	0xc18640ac	-16.781578
14	0xc0f0594c	-7.5109005
15	0xc0b36e6c	-5.607229
16	0x3f76b767	0.963736
17	0xc119af33	-9.605273
18	0xc1963396	-18.775188
19	0xbf9a0638	-1.2033148
20	0xc13623f5	-11.383779
21	0xc192af11	-18.335482
22	0xc1a67921	-20.809145
23	0xc16c9772	-14.786974
24	0xc11bf1db	-9.746547
25	0x4114bee2	9.296602
26	0xc15e610e	-13.898695
27	0x40ba7de7	5.827869
28	0xc0878db5	-4.236048
29	0xc157e946	-13.4944515
30	0xc139bf30	-11.609177
31	0xc1194fd8	-9.581993
32	0xc1ea76bf	-29.307981
33	0x4129243d	10.571347
34	0xc113a82c	-9.228558
35	0xc00f6d3b	-2.241042
36	0xc145cdec	-12.362774
37	0xc0cc31dd	-6.381087
38	0xc13170ff	-11.090087
39	0xc263b34c	-56.925095
40	0xc0d482c9	-6.640965
41	0xc1899380	-17.197021
42	0xbf81238e	-1.0088975
43	0xc1763577	-15.388053
44	0xc0e92908	-7.2862587
45	0xc058570a	-3.3803124
46	0xc043f331	-3.0617182
47	0x4054e23f	3.326309

pre_conv.5.running_var f4 [48]
0	0x43004712	128.27762
1	0x42b8f917	92.4865
2	0x435e41e5	222.2574
3	0x43a88a88	337.08228
4	0x42da23c8	109.069885
5	0x42a1d11b	80.90841
6	0x435aa388	218.6388
7	0x4385aba2	267.34088
8	0x43a1c750	323.55713
9	0x434fe79f	207.90477
10	0x438e830b	285.02377
11	0x435c66ea	220.40201
12	0x43684a1f	232.28954
13	0x435f07dc	223.0307
14	0x42ee9a25	119.30106
15	0x42b639a9	91.11262
16	0x42b0729d	88.223854
17	0x43aa89be	341.0761
18	0x43882c6b	272.34702
19	0x42c22454	97.07095
20	0x437a6644	250.39948
21	0x435f6563	223.39604
22	0x433884a4	184.51813
23	0x43a25b49	324.71317
24	0x42fae14c	125.44003
25	0x4331138b	177.07634
26	0x4328af35	168.6844
27	0x42945983	74.17483
28	0x42ebe773	117.95205
29	0x43166681	150.4004
30	0x431060c2	144.37796
31	0x42e7e358	115.94403
32	0x43a11e0a	322.23468
33	0x43528bb8	210.54578
34	0x436fdc3e	239.86032
35	0x42dd97fe	110.79686
36	0x430b695f	139.4116
37	0x42ed37ec	118.60922
38	0x42be94be	95.29051
39	0x440dd6f8	567.3589
40	0x434cb7f8	204.71863
41	0x430d0a66	141.04062
42	0x432771de	167.4448
43	0x440727b5	540.6204
44	0x4399953f	307.166
45	0x430b6fb0	139.43628
46	0x42e5fab8	114.989685
47	0x43552b30	213.1687

pre_conv.8.weight f4 [64, 48, 2, 2]
0	0xbeadf7e8	-0.339782
1	0x3f01a8f4	0.50648427
2	0x3d816908	0.06318861
3	0x3efcf9ab	0.49409232
4	0x3eb1801f	0.3466806
5	0x3e5ff19a	0.21869507
6	0xbe847641	-0.2587147
7	0xbeef932f	-0.4679198
8	0xbea3f0ce	-0.32019657
9	0xbf249a9b	-0.6429841
10	0x3f4fa325	0.81108314
11	0x3e54d5ae	0.20784637
12	0xbf287327	-0.6580071
13	0x3eb6bad1	0.35689405
14	0xbfdad2a4	-1.7095532
15	0x3f2e011f	0.6797046
16	0xbf3289a6	-0.69741285
17	0x3fe189d4	1.7620187
18	0x3f81fb3e	1.0154798
19	0xbf95b1b2	-1.1694853
20	0xbfba88df	-1.457302
21	0x3f2a4f03	0.6652681
22	0xbe75cf59	-0.24004878
23	0xbd7034d7	-0.058644142
24	0xbf0e2618	-0.55526876
25	0x3bae2e3f	0.0053155716
26	0xbe9eb224	-0.30995286
27	0xbf728602	-0.9473573
28	0xbeb497f0	-0.3527217
29	0xc0021bc9	-2.0329459
30	0x3e9cccc6	0.3062498
31	0xbf83150c	-1.0240798
32	0xbda0e47d	-0.07856081
33	0x3feed776	1.8659503
34	0x3e5217d5	0.20516904
35	0xbfc49218	-1.5357084
36	0xbf80aee3	-1.0053371
37	0x3e67df5f	0.22643803
38	0x3f741222	0.9534017
39	0x3d9deeef	0.077115886
40	0x3f9f97c0	1.2468185
41	0x3e8fd2dd	0.28090563
42	0xbed2d6db	-0.41179547
43	0xbc5eaa8e	-0.013590468
44	0xbf7c42ea	-0.985396
45	0xbf29a700	-0.66270447
46	0x3f127279	0.5720592
47	0xbe7130d3	-0.23553781
48	0xbfa75afc	-1.3074641
49	0x3e6a43dd	0.2287745
50	0xbe23d36c	-0.1599862
51	0xbf11c2bd	-0.5693777
52	0xbfbf66b4	-1.4953218
53	0x3e439fef	0.19103979
54	0x3f827283	1.0191196
55	0x3e2e0936	0.16995701
56	0xbeac1067	-0.33606264
57	0xbf4d5cf7	-0.8021998
58	0xbfa3b5e0	-1.2789879
59	0x401990de	2.399467
60	0x3eb20b0f	0.34774062
61	0xc015338d	-2.3312714
62	0xbf730240	-0.9492531
63	0x4028325a	2.6280732
64	0xbedbec03	-0.429535
65	0xbf629956	-0.8851522
66	0x3f0f3892	0.55945694
67	0xbfa409ad	-1.2815453
68	0xbdd3dcac	-0.10344824
69	0xbdcb065d	-0.09913323
70	0x3f8579a3	1.0427746
71	0xbfac58c2	-1.3464587
72	0x3d829078	0.063752115
73	0xbf630b14	-0.8868878
74	0xbf0012bc	-0.50028586
75	0xbe4b5e11	-0.19860102
76	0xbf32710c	-0.69703746
77	0xbfa1e384	-1.2647557
78	0x3fda1a41	1.7039262
79	0x3f686ac7	0.9078793
80	0xbeab6eb6	-0.33482903
81	0xbfc9786e	-1.5739877
82	0x3ec22fec	0.37927186
83	0xbe844a62	-0.25838
84	0xbfa016e6	-1.2506988
85	0xbf9d9b95	-1.2313105
86	0x3fdc6a09	1.7219859
87	0xbf3ecffd	-0.74536115
88	0x3f42f9d3	0.7616245
89	0xbd452ef1	-0.04814047
90	0x40071d87	2.1111772
91	0xbf79306c	-0.9733951
92	0x3f08a6cf	0.5337953
93	0x3edcec7d	0.43149176
94	0xbde2b9e1	-0.1107061
95	0x3fd512bb	1.6646341
96	0x3f1c9980	0.6117172
97	0x3fc91278	1.5708761
98	0xbf1685eb	-0.5879809
99	0x3ec98335	0.39357916
100	0xbe8d9557	-0.27653
101	0xbfac47b2	-1.345938
102	0x3e747e9a	0.2387642
103	0x3e3b57f0	0.18295264
104	0x3ea7daf9	0.3278425
105	0x3f8bb45c	1.0914416
106	0xbfa24ac8	-1.2679071
107	0xbf6e1059	-0.92993695
108	0xbdc1e062	-0.09466626
109	0x3dc9d5f6	0.09855263
110	0x3f059e29	0.5219446
111	0xbdc435b9	-0.09580559
112	0x40503bf6	3.2536597
113	0xbed34be4	-0.41268837
114	0xbfe9a386	-1.8253028
115	0xbfaeddc4	-1.3661427
116	0xbeadd25e	-0.3394956
117	0xbf4e46fc	-0.80577064
118	0x3e2aac4c	0.16667289
119	0xbf9194f8	-1.1373587
120	0xbdd9fc6c	-0.10643849
121	0xbeb2f5f9	-0.34953287
122	0x3ccd4d67	0.025061322
123	0x3e0d25ca	0.13783947
124	0x3f97dd06	1.1864326
125	0x3f12e951	0.5738726
126	0xbee86ba4	-0.45394623
127	0xbfd0efd3	-1.6323189
128	0x3ea4eb9b	0.32211003
129	0xbeafc46a	-0.3432954
130	0x3eda0046	0.42578334
131	0xbe9d12e0	-0.30678463
132	0xbfa50c91	-1.289446
133	0xbee86748	-0.45391297
134	0xbd9a2a3c	-0.07527587
135	0xbf9c56f6	-1.2214038
136	0x3f87c2c2	1.060631
137	0x402ec727	2.7309053
138	0xbfcdc47a	-1.6075585
139	0xbf960c5b	-1.172252
140	0x3e9e22b3	0.30885848
141	0x3fbbde12	1.4677145
142	0x3e825bee	0.25460762
143	0xbfe8fcd4	-1.8202157
144	0xbe832571	-0.25614503
145	0xbe45460f	-0.19265006
146	0x3f4a851a	0.79109347
147	0x3f06e5d2	0.5269443
148	0x3ef61359	0.48061636
149	0x3f68b081	0.90894324
150	0x3de395dd	0.111125685
151	0xbfa52fdb	-1.2905229
152	0x3f05f935	0.52333385
153	0x3f93fd36	1.1561649
154	0xbec011e6	-0.37513655
155	0xbf7a66fe	-0.97813404
156	0x3e18d362	0.14924386
157	0x3da78ebe	0.08181523
158	0x3f45a085	0.7719806
159	0xbe82cdb8	-0.25547576
160	0xbe939b3f	-0.2882938
161	0x3d7901a7	0.06079259
162	0xbfd223ce	-1.6417177
163	0xbf08f9ab	-0.53505963
164	0x3e6633e9	0.2248074
165	0xbf7b9103	-0.98268145
166	0x3fb70c96	1.4300716
167	0xbfc69ff8	-1.5517569
168	0x3fc6b502	1.5523989
169	0xbf85e372	-1.0460036
170	0xbfd137ee	-1.6345193
171	0xbd2a5bda	-0.041591503
172	0xbd90bc65	-0.070671834
173	0xbeb7089f	-0.35748765
174	0x3f3b625b	0.73196954
175	0xbe6ec070	-0.23315597
176	0xc00ba6c9	-2.1820548
177	0xbfd2cd56	-1.6468914
178	0x40117ab2	2.2731137
179	0x3eec47c6	0.4614851
180	0x3e7af072	0.24505785
181	0xbf8eff83	-1.1171726
182	0xbfba830f	-1.4571246
183	0x3f99a3de	1.2003133
184	0xbdba05c7	-0.09083133
185	0xbf703ca4	-0.9384253
186	0xbe6ebf86	-0.23315248
187	0x3ed7a4d7	0.4211795
188	0x3e8cf8be	0.27533525
189	0xbcd2c7dd	-0.025730068
190	0xbf1e1c6e	-0.6176213
191	0x3f281d2f	0.6566953
192	0xbf11b82c	-0.5692165
193	0x3ea0fc87	0.31442663
194	0x3eab1da8	0.33421063
195	0xbc4b6e2e	-0.012416406
196	0x3e59b695	0.21261056
197	0xbf958883	-1.1682285
198	0x3b3413cb	0.0027477618
199	0x3f193df9	0.5986019
200	0x3f48d8a8	0.7845559
201	0xbfb05f73	-1.3779129
202	0xbf956a52	-1.1673071
203	0xbf179d87	-0.5922474
204	0x3e3b5bda	0.18296757
205	0x40182db8	2.3777905
206	0x3db36997	0.08760374
207	0xbee23eb8	-0.44188476
208	0xbf52a66f	-0.8228521
209	0x3ece400b	0.40283236
210	0x3fbc3027	1.4702195
211	0x3f8f9dd3	1.1220039
212	0x3e190eb1	0.1494701
213	0x3f6069c7	0.87661403
214	0x3e913495	0.2836043
215	0x3f1a1843	0.6019327
216	0xbf433335	-0.7625001
217	0x3e5172e7	0.20453988
218	0xc0105168	-2.2549686
219	0x3f4b9013	0.79516715
220	0x3fa5181b	1.2897981
221	0xbda92e4f	-0.08260786
222	0xbf8400cb	-1.0312742
223	0xbf081829	-0.53161865
224	0xbe9c3a49	-0.30513218
225	0x3f91f416	1.1402614
226	0x3eb3d081	0.35120013
227	0xbe60009f	-0.21875237
228	0x3f6f546b	0.93488187
229	0x3f4de40b	0.8042609
230	0xbee638fb	-0.44965348
231	0xbdb56884	-0.088578254
232	0x3e83b334	0.2572266
233	0xbec40af8	-0.38289618
234	0x3fb73296	1.4312313
235	0x3db195ec	0.086711735
236	0xbf683c7d	-0.907173
237	0x3f97f971	1.1872998
238	0x3f9ba999	1.2161132
239	0xbfb75522	-1.4322855
240	0x3f694242	0.91116726
241	0xbf833779	-1.0251304
242	0xbed2ff43	-0.41210374
243	0xbf6dea4e	-0.92935646
244	0xbef580a3	-0.47949705
245	0xbe02ecd4	-0.12785655
246	0x3faf1bd1	1.3680364
247	0xbe071491	-0.13191439
248	0xbf95aed6	-1.1693981
249	0xbf14c067	-0.5810608
250	0xbf22765a	-0.6346184
251	0x3ee823b5	0.45339742
252	0x3f81324b	1.0093473
253	0xbf93c6a2	-1.1544993
254	0xbf891cfb	-1.0711969
255	0xbff9d92a	-1.9519398

pre_conv.8.bias f4 [64]
0	0x3dbbf208	0.09177023
1	0xbd23e021	-0.040008668
2	0x3d011a56	0.031519257
3	0xbb016835	-0.001974595
4	0xbc83fd59	-0.016112017
5	0xbd46f104	-0.048569694
6	0xbc9e1675	-0.019297818
7	0xbd627166	-0.055283926
8	0xbd467075	-0.04844709
9	0xbd1a2a3e	-0.03763794
10	0xbca230d8	-0.019798681
11	0x3d8bbdc8	0.06823307
12	0x3cba4d8e	0.02274206
13	0xbb4b2451	-0.0030996988
14	0x3da2d4bc	0.07950732
15	0xbd2ef6a4	-0.042715684
16	0xbd625490	-0.055256426
17	0x3d633394	0.05546911
18	0x3d7cb57b	0.06169651
19	0x3d2d421d	0.04229938
20	0xbd398699	-0.045294378
21	0xbc9246d3	-0.017856037
22	0xbdbd9ec6	-0.09258799
23	0x3d478012	0.04870612
24	0x3d242c1e	0.040081136
25	0x3ba0e726	0.0049103675
26	0xbcc7c2e8	-0.02438493
27	0xbcb7cfe1	-0.022437992
28	0xbbde97c5	-0.0067929947
29	0x3d66f634	0.05638714
30	0x3d66bc80	0.05633211
31	0xbc034ea2	-0.008014353
32	0xbc262a9d	-0.010141996
33	0xbd934a08	-0.07191855
34	0xbd5c3632	-0.053762622
35	0x3d596586	0.053075336
36	0x3dd513e8	0.104041874
37	0x3c92491f	0.017857132
38	0x3d602de6	0.054731272
39	0x3d393734	0.04521866
40	0x3c52241a	0.01282599
41	0x3ca2569d	0.019816691
42	0x3cb5fd2d	0.02221545
43	0x3d26a253	0.04068215
44	0x3d3032bd	0.043017138
45	0x3d77289b	0.06034146
46	0x3c4136fd	0.011792895
47	0xbcda941f	-0.026681958
48	0x3d887fc4	0.06664994
49	0xbb6d8f03	-0.0036248572
50	0xbcf75992	-0.030194078
51	0xbcbb8f73	-0.02289555
52	0x3d311d91	0.043241087
53	0xbd469f87	-0.04849198
54	0xbb7bb0cb	-0.0038404937
55	0xbd85f01d	-0.065399386
56	0x3d8592d9	0.065221496
57	0x3d921871	0.07133568
58	0xbd3de9e8	-0.04636565
59	0x3ce3daa4	0.027814217
60	0x3d96d41a	0.07364674
61	0xbc7c8ce9	-0.015414455
62	0xbd903cbc	-0.07042834
63	0x3da2abbf	0.07942914

pre_conv.9.weight f4 [64]
0	0x401cd32e	2.4503894
1	0x3fca7cf8	1.5819387
2	0x3fe51dbf	1.7899703
3	0x3f9149af	1.1350611
4	0x3f8505b2	1.0392363
5	0x3ffedbaa	1.9910786
6	0x3fb33466	1.4000366
7	0x3fd367b1	1.6516019
8	0x3fc66560	1.5499687
9	0x3f5e7b26	0.8690666
10	0x3f61596e	0.88027084
11	0x3f802e3a	1.0014107
12	0x3fc38246	1.5274131
13	0x3fb83375	1.4390703
14	0x3f9f6889	1.2453777
15	0x3f7ba465	0.9829772
16	0x3fb024d7	1.3761243
17	0x3f903493	1.1266044
18	0x3f8ee822	1.1164591
19	0x3fbdddf5	1.4833361
20	0x3f4cb6fa	0.799667
21	0x3fb2f430	1.398077
22	0x3f9deb34	1.2337403
23	0x3fc56ddd	1.5424153
24	0x3fb28c7f	1.3949126
25	0x3f9a7d83	1.2069553
26	0x3f9d9056	1.2309673
27	0x3fa0b5d4	1.255549
28	0x3fc9ef43	1.5776142
29	0x3f9fe44c	1.2491546
30	0x3fc15091	1.5102712
31	0x3f9a7dae	1.2069604
32	0x3f8dd060	1.1079216
33	0x3f9435fa	1.1578972
34	0x3f560e82	0.8361589
35	0x3f8aa460	1.0831413
36	0x3feb5fb3	1.838858
37	0x3ff3ec7c	1.9056544
38	0x3fb9b823	1.4509319
39	0x3fc87e21	1.5663491
40	0x3f77ae27	0.9675011
41	0x3fe01aea	1.7508214
42	0x3f9b5a47	1.2136925
43	0x3fb0541d	1.3775669
44	0x3fe25492	1.7682059
45	0x4020861e	2.5081859
46	0x3fb641eb	1.4238867
47	0x402987cd	2.6489136
48	0x3f9517f0	1.164793
49	0x3f902f3b	1.1264414
50	0x3f586a5c	0.8453729
51	0x3fdf5213	1.7446922
52	0x3f819101	1.0122377
53	0x3fb9f818	1.4528837
54	0x3f904ad8	1.127284
55	0x3fc93018	1.5717802
56	0x3fa3a7bf	1.2785567
57	0x3f9d5b01	1.2293397
58	0x3fa3d98f	1.2800769
59	0x3fd1e5bd	1.6398236
60	0x3f720edd	0.9455393
61	0x3fbf8e07	1.4965218
62	0x3f8ddbb0	1.1082668
63	0x3fd686d3	1.6759895

pre_conv.9.bias f4 [64]
0	0xbf806fe5	-1.0034148
1	0xbf3237c6	-0.69616354
2	0xbf9a78c6	-1.2068107
3	0xbe3f60c8	-0.18689263
4	0xbee3ea9e	-0.44514936
5	0xbfcc9298	-1.5982237
6	0xbf0741d3	-0.52834815
7	0xbf7459a4	-0.9544928
8	0xbf6568d7	-0.896131
9	0xbe12a094	-0.14319068
10	0x3e5b9eb5	0.2144726
11	0xbe637c32	-0.22215346
12	0xbf1b5366	-0.6067413
13	0xbf436f52	-0.76341736
14	0xbef67431	-0.48135522
15	0xbc122c0f	-0.008921637
16	0xbe81b571	-0.2533374
17	0xbef6c833	-0.48199615
18	0xbee71fc0	-0.4514141
19	0xbefb6a2f	-0.4910445
20	0x3ea53ddb	0.32273754
21	0xbf0f8fd0	-0.56078815
22	0xbf0f934e	-0.56084144
23	0xbf2098a2	-0.627329
24	0xbf191442	-0.59796536
25	0xbec0bb45	-0.37642875
26	0xbe96dddf	-0.2946615
27	0xbf1db176	-0.6159891
28	0xbf7e3835	-0.99304515
29	0xbe386ec2	-0.18011001
30	0xbf242c35	-0.64129955
31	0xbee47567	-0.4462082
32	0xbe90fa9f	-0.2831621
33	0xbe9627e3	-0.29327306
34	0xbaeec863	-0.0018217679
35	0xbefbdc69	-0.49191597
36	0xbf74718a	-0.95485747
37	0xbec513b3	-0.38491592
38	0xbf3c62ce	-0.73588264
39	0xbf2458b2	-0.6419784
40	0x3ef4d3fb	0.47817978
41	0xbf4454c2	-0.7669183
42	0xbe9f81e6	-0.31153792
43	0xbf055104	-0.52076745
44	0xbfa1a31e	-1.2627904
45	0xbfb6946a	-1.4264042
46	0xbef355a9	-0.4752629
47	0xbfbd023a	-1.4766304
48	0xbeb404df	-0.35159966
49	0x3ce6f63b	0.028193584
50	0x3e198a98	0.14994276
51	0xbf4cc6d8	-0.7999091
52	0xbe81e579	-0.25370386
53	0xbf84bbfb	-1.0369867
54	0xbe0ab8e9	-0.135471
55	0xbf60bb0f	-0.8778543
56	0xbd10f100	-0.035386086
57	0xbef4f7c4	-0.4784528
58	0xbefd228c	-0.4944042
59	0xbf2c2f6b	-0.67259854
60	0x3cda0d0e	0.026617553
61	0xbf2c2dd7	-0.67257446
62	0xbf07bdfd	-0.53024274
63	0xbf6cbdde	-0.92477214

pre_conv.9.running_mean f4 [64]
0	0xc0f1e820	-7.5595856
1	0x3fadf728	1.3591051
2	0xc1dd6907	-27.676283
3	0xc2076237	-33.845913
4	0xc08c63f1	-4.3872
5	0xc104bac0	-8.295593
6	0xc1ccfc68	-25.623245
7	0xc0e46288	-7.1370277
8	0xc0fe8720	-7.9539948
9	0x4257b346	53.92507
10	0x420bfcc3	34.996838
11	0xc045320f	-3.0811803
12	0xc1b3111d	-22.383356
13	0xc0e21848	-7.065464
14	0x402b6c39	2.6784804
15	0xbfaabbf1	-1.3338605
16	0xc1acef38	-21.616806
17	0xc1279402	-10.473635
18	0x402622aa	2.5958657
19	0xc194e4ca	-18.611713
20	0xbf4d0cc7	-0.8009762
21	0xc0a3374c	-5.1005
22	0xc1a4f080	-20.617432
23	0xc1827fdb	-16.31243
24	0xc1444f1f	-12.269317
25	0xc1ea0684	-29.253181
26	0xc1a27df7	-20.311506
27	0xc08c74e9	-4.3892713
28	0xc0c78331	-6.2347646
29	0xc0703893	-3.753453
30	0xc1274a5b	-10.455653
31	0xc13a7c42	-11.655336
32	0xc14cc32f	-12.797652
33	0xc0b7d4c7	-5.744724
34	0xc126a133	-10.414355
35	0xc1bab067	-23.336134
36	0xc170b5b3	-15.04436
37	0xc06f2062	-3.7363515
38	0xc19395a4	-18.448067
39	0xc0e39d21	-7.112931
40	0xc142151d	-12.130155
41	0xc0fda349	-7.9261823
42	0xc1a33584	-20.40113
43	0xc197c434	-18.970802
44	0xc12a04db	-10.626185
45	0xc18e55c6	-17.791882
46	0x4053ba2c	3.308238
47	0xc1533d7d	-13.202512
48	0xc17e4fe4	-15.894505
49	0xc18bc224	-17.469795
50	0xc0dd8bf7	-6.9233356
51	0xc1caa456	-25.330242
52	0xc1ab8e6c	-21.444542
53	0xc108f1b0	-8.559006
54	0xc09f308e	-4.974677
55	0xc171913e	-15.0979595
56	0xc1b6b16a	-22.836628
57	0xc1309983	-11.037478
58	0x3fa607ef	1.2971171
59	0xc1366640	-11.399963
60	0xc134cdc0	-11.300232
61	0xc197c882	-18.972904
62	0xc14d9730	-12.849411
63	0xc14a40be	-12.640806

pre_conv.9.running_var f4 [64]
0	0x43170cc6	151.0499
1	0x437d93f6	253.57797
2	0x431c1033	156.06328
3	0x434130e5	193.191
4	0x42f20e13	121.02749
5	0x430ad459	138.82948
6	0x43926662	292.79987
7	0x43178e35	151.5555
8	0x4334459d	180.27193
9	0x4388d0e5	273.632
10	0x43b8ef43	369.86923
11	0x4329cfbd	169.81148
12	0x4344d8ac	196.84637
13	0x438a21e7	276.26486
14	0x433f6f2e	191.4343
15	0x43345ef9	180.37099
16	0x43674f91	231.3108
17	0x433eb0d2	190.6907
18	0x430fc988	143.78723
19	0x4351d53c	209.83295
20	0x433e81db	190.50725
21	0x4314e257	148.88414
22	0x4301738a	129.45132
23	0x435b0b79	219.04482
24	0x42edd377	118.91302
25	0x434ab7b8	202.71765
26	0x42d7406b	107.62582
27	0x4317ce29	151.80531
28	0x42f3f60c	121.98056
29	0x432c75ce	172.46017
30	0x43403fe4	192.24957
31	0x431a7fbb	154.49895
32	0x42f8e83b	124.453575
33	0x42ea6394	117.19449
34	0x42bf94b7	95.79046
35	0x42d8d928	108.42413
36	0x42ed7c1a	118.742386
37	0x4336cebc	182.80756
38	0x4324d213	164.8206
39	0x42e5aebc	114.84128
40	0x430c8801	140.53127
41	0x430ddbba	141.8583
42	0x4325be2f	165.7429
43	0x4313abcc	147.67108
44	0x4316412d	150.2546
45	0x4301dc3f	129.86034
46	0x43496c43	201.4229
47	0x43258c01	165.54689
48	0x42f596bf	122.794426
49	0x4397ca55	303.58072
50	0x430969c6	137.41318
51	0x43559e7e	213.61911
52	0x43140bdf	148.04637
53	0x431ffcfe	159.98825
54	0x4334e43d	180.89156
55	0x43a8995f	337.1982
56	0x431dc58c	157.77167
57	0x43243402	164.20316
58	0x4304d38d	132.82637
59	0x43b087c4	353.06067
60	0x4336abc9	182.67104
61	0x43561344	214.07526
62	0x43223d21	162.23878
63	0x4370e898	240.90857

pre_line.0.weight f4 [128, 576]
0	0x3eebbb6b	0.46041426
1	0xbf3bb941	-0.7332955
2	0xbe85bbe3	-0.2611991
3	0x3e5b0aca	0.21390834
4	0xbf357f14	-0.7089703
5	0xbf96077a	-1.1721032
6	0xbf678890	-0.9044275
7	0x3e6b820d	0.22998829
8	0x3db7c093	0.089722775
9	0x3e5d5631	0.2161491
10	0x3e11a1de	0.14221904
11	0x3f0e0af3	0.5548546
12	0x3f53fe9d	0.82810384
13	0x3f2f98b4	0.6859238
14	0x3f2379c9	0.63857704
15	0x3f0a53a9	0.54033905
16	0x3f3443bc	0.70415854
17	0x3dcf7902	0.10130502
18	0xbee4ab67	-0.4466202
19	0x3f8b483a	1.0881417
20	0xbef5e25a	-0.48024255
21	0xbfb3b8ec	-1.4040809
22	0x3e9e2096	0.30884236
23	0xbfa69f27	-1.301732
24	0xbf8f21b5	-1.1182162
25	0x3e3a1c89	0.18174948
26	0x3f60fbbc	0.87884116
27	0xbd3e79c4	-0.046502843
28	0xbf82d16d	-1.0220162
29	0xbfb454aa	-1.4088337
30	0xbe67c479	-0.22633542
31	0x3dc5d3c3	0.09659531
32	0x3e57b86e	0.21066448
33	0x3e277568	0.1635338
34	0x3f93e399	1.1553832
35	0x3e00335d	0.12519594
36	0xbdab4fdb	-0.083648406
37	0x3ccc9488	0.024973169
38	0x3f740f21	0.95335585
39	0xbdc31dc2	-0.0952716
40	0x3f4dbb61	0.8036404
41	0xbe912c5c	-0.28354156
42	0x3f9fd1e6	1.2485931
43	0x3f4742c9	0.7783628
44	0xbf4fc7a2	-0.8116399
45	0xbe1d1354	-0.15339404
46	0x3da5ae0f	0.0808984
47	0x3dedd373	0.11612596
48	0xc0211449	-2.516863
49	0x3f80b66b	1.005567
50	0xbfc30712	-1.5236533
51	0x3d78ff10	0.06079012
52	0xbf2232c4	-0.6335871
53	0xbdfa1650	-0.12211287
54	0xbf8ebe3e	-1.1151807
55	0x3f21b57f	0.63167566
56	0xbcafa203	-0.021439558
57	0x3efc75aa	0.4930852
58	0x3f0b814b	0.5449416
59	0x3f13abeb	0.576842
60	0x3f157479	0.5838085
61	0xbf65716a	-0.8962618
62	0xbe2cc93b	-0.16873638
63	0x3f1c118d	0.6096428
64	0x3f3b7fc5	0.73241836
65	0xbf3c8248	-0.73636293
66	0x3fc21e12	1.5165427
67	0xbcf4096c	-0.029789649
68	0xbfb12347	-1.3838891
69	0x401b2644	2.4242105
70	0xbfab9e53	-1.3407692
71	0xbdaff627	-0.08591872
72	0xbf2ceb4b	-0.6754653
73	0x3ea9f832	0.3319717
74	0x3f33f91b	0.7030198
75	0xbd6992a6	-0.05702462
76	0xbf546c12	-0.829774
77	0x3e167f1d	0.14696927
78	0x3db96c3b	0.090538464
79	0xbe99b721	-0.3002253
80	0xbe0fa800	-0.1402893
81	0xbe1b3979	-0.15158643
82	0xbe20004d	-0.15625115
83	0xbebeb35c	-0.37246215
84	0xbcb88561	-0.022524538
85	0x3e18b38d	0.14912243
86	0xbfb1a223	-1.3877605
87	0xbf4e3c0d	-0.8056038
88	0xbf5d7127	-0.8650078
89	0xbed46413	-0.414826
90	0xbfc784d7	-1.5587415
91	0xc03c0dcf	-2.9383428
92	0xc0351d5e	-2.8299174
93	0x3d49d4e2	0.049275286
94	0xbfdc8e28	-1.7230883
95	0x3d5644dc	0.052311763
96	0xbef878cd	-0.48529664
97	0xbf70f1ef	-0.9411916
98	0x3e9ff0c0	0.31238365
99	0x3e975c55	0.2956263
100	0x3e14e679	0.14541043
101	0x3f544796	0.8292173
102	0xbe7f3daa	-0.24925867
103	0xbeff507f	-0.498661
104	0x3de9d011	0.11416639
105	0x3f8c52be	1.0962751
106	0xbfa8a5b9	-1.3175575
107	0xbfbefaf9	-1.4920341
108	0xbff5a0c9	-1.9189693
109	0xbf245e49	-0.6420637
110	0x3d769398	0.06019935
111	0xbf06b070	-0.5261297
112	0x3cc1fa39	0.023678886
113	0x3e20d4c1	0.15706159
114	0xc02334ff	-2.5501096
115	0xbfbe11d3	-1.484919
116	0xbfb5df34	-1.4208741
117	0x3d8fbb11	0.07018102
118	0xbe9ff4fa	-0.3124159
119	0x3e4db9f1	0.20090462
120	0xbea9244a	-0.330355
121	0xbf822017	-1.0166043
122	0x3e5ab3f2	0.21357706
123	0x3ee649c9	0.4497817
124	0xbd942a15	-0.07234589
125	0xbdb371be	-0.08761929
126	0x3e944bf5	0.289642
127	0xbef3d600	-0.47624207
128	0x3e16820c	0.14698046
129	0xbf8ad4e1	-1.0846215
130	0xbf5658f0	-0.8372946
131	0xbf841341	-1.0318376
132	0x3fdf43b5	1.7442538
133	0x3d9c0155	0.076174416
134	0x3f7191bf	0.94363016
135	0xbf16daa9	-0.589274
136	0x3e991448	0.29898286
137	0xbee66a10	-0.45002794
138	0xc002f92c	-2.0464582
139	0xbfcefbb5	-1.6170565
140	0xbf29e2bc	-0.66361594
141	0x3e12add5	0.14324124
142	0xbe3c2f9d	-0.18377538
143	0xbf882eab	-1.0639242
144	0xbf14e02d	-0.58154565
145	0x3ed23af8	0.41060615
146	0x3ee5c417	0.44876167
147	0xbe768c74	-0.24077016
148	0xbf885b5f	-1.0652884
149	0x3f4e4ef1	0.80589205
150	0x3df741db	0.12073108
151	0x3f254ac0	0.64567184
152	0x3f86056b	1.0470403
153	0xbf564e64	-0.83713365
154	0x3df8b5d6	0.121440575
155	0x3eb85bce	0.3600754
156	0xbf813769	-1.0095035
157	0x3f6b6c76	0.91962373
158	0x3f628aa8	0.8849282
159	0xbf8a320f	-1.0796527
160	0x3f7951c9	0.9739042
161	0xbdd562a6	-0.10419206
162	0xbed0c9ba	-0.40778905
163	0xbe378026	-0.17919978
164	0xbecb8b5c	-0.3975476
165	0xbf6e6d49	-0.93135506
166	0xbfa6a1de	-1.3018148
167	0x3ed60620	0.41801548
168	0x3ebee81a	0.37286454
169	0xbeeae959	-0.45881155
170	0xbf89ac1f	-1.0755652
171	0x3f177a61	0.5917111
172	0xbf04b8dc	-0.51844573
173	0xbefe8c7d	-0.4971656
174	0x3e71a455	0.23597844
175	0x3f0b006f	0.54297537
176	0xbe399417	-0.18122898
177	0xbe30a199	-0.17249145
178	0x3eb689f7	0.35652134
179	0x3e24a417	0.1607822
180	0xbdd04e87	-0.10171228
181	0x3efbefe8	0.4920647
182	0xbf363d3e	-0.711872
183	0x3bd2e154	0.0064355526
184	0x3f41c7ff	0.75695795
185	0xbfde2063	-1.7353634
186	0x3eb6257b	0.3557547
187	0x3db38683	0.087658904
188	0xbeddc0ce	-0.4331116
189	0x3e887636	0.26652688
190	0xbf544642	-0.82919705
191	0xbebc2654	-0.36747992
192	0x3f7d59b5	0.9896501
193	0xbd1c8b3e	-0.03821873
194	0xbef35c75	-0.47531477
195	0xbf6e7543	-0.9314768
196	0x3ec0d08b	0.37659106
197	0xbe936abd	-0.28792372
198	0xbd3103ff	-0.0432167
199	0xbee8ae98	-0.45445704
200	0x3d112f07	0.03544524
201	0xbd3aa098	-0.04556331
202	0x3e1a622b	0.1507651
203	0x3f8496cf	1.0358523
204	0x3ea5b856	0.323672
205	0xbf8591c6	-1.0435112
206	0x3eb56ae8	0.35433125
207	0x3f95b8df	1.1697043
208	0x3fc9a3ff	1.5753173
209	0x3eeb45a4	0.4595157
210	0x3f842fc3	1.0327076
211	0x3e8809f9	0.2657011
212	0xbfa2377a	-1.267318
213	0xbe9a9e85	-0.30199066
214	0xbf9c96b1	-1.2233487
215	0xbff0d7ab	-1.8815817
216	0xbf8d9bd0	-1.1063175
217	0xbf1ccfdc	-0.6125467
218	0x3f1a6bc7	0.60320705
219	0xbee19e40	-0.44066048
220	0x3eea785d	0.45794955
221	0x3f85cd39	1.0453254
222	0x3f4ff592	0.81234086
223	0x3ff66035	1.924811
224	0x3d9b3502	0.0757847
225	0xbf3cd307	-0.737595
226	0xbe3dd4b5	-0.18538173
227	0xbfdb0fd8	-1.711421
228	0xbe746dc7	-0.23870002
229	0x3f48e0f5	0.7846826
230	0x3ef3f09d	0.4764451
231	0xbf0fbc4a	-0.5614668
232	0xbfa2964b	-1.2702116
233	0xbe9e99fb	-0.30976853
234	0x3ed3eced	0.41391698
235	0x3e0a9ad7	0.13535629
236	0x3ea4db4b	0.32198557
237	0x3f83daab	1.0301107
238	0xbcd2feca	-0.025756259
239	0x3eca9d11	0.39572957
240	0x3fcf6338	1.6202154
241	0x3f8367bc	1.0266032
242	0x3edf3ebf	0.4360256
243	0x3f14ad67	0.5807709
244	0x3f4ed6f5	0.8079675
245	0x3e94df5a	0.29076654
246	0x3f581319	0.8440414
247	0x3f0713cf	0.527646
248	0xbf408042	-0.75195706
249	0xbe680de7	-0.22661553
250	0xbfc4a142	-1.5361712
251	0xbf4591c2	-0.77175534
252	0xbf1f04a6	-0.6211647
253	0xbf9fd7be	-1.2487714
254	0xbe7c4894	-0.24637061
255	0x3f28bbe7	0.65911716

pre_line.0.bias f4 [128]
0	0x3d25ce30	0.04047984
1	0xbce1e95b	-0.027577093
2	0xbbe874d3	-0.0070940047
3	0x3d0b5bb5	0.034023006
4	0x3cd4cc64	0.025976367
5	0xbbf3c916	-0.007439743
6	0xbc938497	-0.01800756
7	0xbb4fc7d6	-0.0031704805
8	0x3cbd1e90	0.023085862
9	0x3cddbb06	0.027066719
10	0xbd17e22e	-0.037080936
11	0xbc2ed85d	-0.010671702
12	0xbc55830b	-0.013031731
13	0x3a5f47da	0.00085174816
14	0x3c059479	0.008153074
15	0xbd190040	-0.037353754
16	0xbd155e69	-0.03646699
17	0xbcdff5a3	-0.027338808
18	0xbccfafbb	-0.02535235
19	0xbb12f79a	-0.0022425414
20	0x3d286a53	0.041117024
21	0xbcb0d3f2	-0.021585438
22	0x3cce85ca	0.02521028
23	0x3bfbed44	0.0076881964
24	0x3cc531a6	0.024071526
25	0x3d0a3295	0.033739645
26	0x3ba3a9e1	0.0049946164
27	0xbd3f9403	-0.046772014
28	0xbcd9d4b0	-0.026590675
29	0xbd14514d	-0.036210347
30	0x3d091f1b	0.03347693
31	0x3ce848cf	0.02835503
32	0xbc9cd444	-0.019144185
33	0x3cd0cd98	0.02548866
34	0xbc4eca39	-0.012621456
35	0x3c061816	0.0081844535
36	0xbd14c69e	-0.03632223
37	0x3a88741f	0.0010410583
38	0xbd0dd624	-0.03462805
39	0xbcfe7a27	-0.031064106
40	0x3bd78005	0.0065765404
41	0xbc0094b8	-0.007847957
42	0x3cfa1a68	0.03053017
43	0x3c984cad	0.01859125
44	0xbba7ef4c	-0.005124962
45	0x3c95050f	0.018190889
46	0xbd1dc2d8	-0.038515896
47	0x3cd63da3	0.026152438
48	0xbcc1729a	-0.023614217
49	0xbc31f839	-0.010862404
50	0xbd1dfdfe	-0.038572304
51	0xbacdf6f0	-0.0015713852
52	0x3a259582	0.0006316529
53	0x3c78dec0	0.0151898265
54	0x3d1662a4	0.036715165
55	0x3ce57269	0.028008657
56	0xbc22a4fc	-0.009927031
57	0x3c941da1	0.018080534
58	0x3d157a5c	0.036493644
59	0x3cea23bd	0.028581494
60	0xbcc2b8fd	-0.02376985
61	0x3cef648d	0.029222751
62	0x3c7700ac	0.015075844
63	0xbcd538b6	-0.026028018
64	0x3c383967	0.011244155
65	0x3d1625bb	0.036657076
66	0x3c10f9db	0.008848633
67	0xbcce79c2	-0.025204543
68	0x3cbbd680	0.02292943
69	0x3c1fba8a	0.009749064
70	0xbd2da240	-0.04239106
71	0x3bbaf17f	0.005705058
72	0x3c6aee01	0.014338971
73	0xbd3835b5	-0.044973094
74	0xbd11cd48	-0.035596162
75	0xbcde9afe	-0.027173515
76	0x3ca94f64	0.02066774
77	0x3bdac206	0.0066759614
78	0xbc23ab9d	-0.009989646
79	0xbc512a29	-0.012766399
80	0x36fb7bca	7.494794e-06
81	0x3c5f1095	0.013614793
82	0x3b18477e	0.0023235972
83	0xbcf4e59e	-0.029894646
84	0x3c90ae95	0.017661372
85	0xbc9465b7	-0.018114908
86	0xb99a1d3e	-0.00029394956
87	0xbcc29202	-0.023751263
88	0x3ced1689	0.02894141
89	0x3ca0d3fc	0.019632332
90	0x3d071363	0.032977473
91	0x3d38457b	0.044988137
92	0xbc040cb2	-0.008059667
93	0x3c50e846	0.012750691
94	0x3cb09fde	0.021560606
95	0xbbffb178	-0.0078031383
96	0xbba8710b	-0.005140429
97	0x3adf642a	0.0017043401
98	0xbd1207da	-0.03565202
99	0x3d221ed2	0.039580174
100	0xbccff029	-0.025383072
101	0xbcc1a3f7	-0.023637755
102	0x3cab9dbf	0.020949243
103	0xbccc7496	-0.024957936
104	0x3d006316	0.031344496
105	0x3cb8fcee	0.022581544
106	0xbd14fe8c	-0.036375567
107	0x3d10f9d5	0.03539451
108	0xbcdcd6ac	-0.026957832
109	0xbc3eceea	-0.011646012
110	0x3c746e2c	0.014918845
111	0x3cfeb0b5	0.03109012
112	0x3cdb53bb	0.026773324
113	0xbca35107	-0.019936098
114	0x3d27cd61	0.04096735
115	0xbcd3e6db	-0.025866916
116	0x3cffea8d	0.031239772
117	0x3d17b1bf	0.037034746
118	0xbd200d92	-0.03907544
119	0x3aaa5f01	0.0012998284
120	0xbcbea028	-0.023269728
121	0x3d7885d0	0.06067449
122	0x3cd1c934	0.025608636
123	0xbbb0b65d	-0.005392833
124	0x3c8e5bc5	0.017377743
125	0x3d2ec80b	0.042671245
126	0xbc4d9a79	-0.012549036
127	0xbcf0914f	-0.029366164

pre_line.1.weight f4 [128]
0	0x3f8f2c51	1.1185399
1	0x3ec8920d	0.39173928
2	0x3e4cb724	0.19991738
3	0x3ef7b554	0.4838053
4	0x3f910659	1.1330062
5	0x3ee45295	0.44594255
6	0x3edb4319	0.4282463
7	0x3eddbbcc	0.4330734
8	0x3e61f76f	0.22067045
9	0x3e6091a2	0.21930555
10	0x3f21b482	0.6316606
11	0x3e65c5b6	0.22438702
12	0x3f03efec	0.51537967
13	0x3e2b12b3	0.16706352
14	0x3e8d810d	0.2763752
15	0x3fabbaa3	1.3416332
16	0x3f2c00b4	0.6718857
17	0x3f78db85	0.9720996
18	0x3f4444d1	0.76667506
19	0x3f881087	1.0630044
20	0x3f2f661f	0.685152
21	0x3f800e60	1.0004387
22	0x3e3d6bdf	0.18498181
23	0x3fbe0449	1.4845058
24	0x3f7f9f92	0.9985286
25	0x3e9b2fc7	0.3030989
26	0x3f504dd0	0.8136873
27	0x3f03f46a	0.5154482
28	0x3ef85ea1	0.48509696
29	0x3e33aa2a	0.17545381
30	0x3f78324e	0.9695176
31	0x3f311999	0.69179684
32	0x3f366c5a	0.7125908
33	0x3ef2b459	0.4740322
34	0x3f01b27c	0.5066297
35	0x3e572671	0.21010758
36	0x3f81b663	1.0133785
37	0x3f505e16	0.81393564
38	0x3d4c6a76	0.049906217
39	0x3f29634d	0.66167146
40	0x3f700a55	0.93765765
41	0x3df82d1f	0.12117981
42	0x3f803d22	1.0018656
43	0x3e96fbb1	0.294889
44	0x3f64b2f2	0.8933555
45	0x3f5d3914	0.8641522
46	0x3f6949e9	0.911284
47	0x3f4dfc1a	0.804628
48	0x3edae330	0.42751455
49	0x3e60f26a	0.21967474
50	0x3e4bdeb4	0.19909173
51	0x3f6a9f18	0.9164901
52	0x3e9d4e01	0.30723575
53	0x3e0e9579	0.13924207
54	0x3f2bea3c	0.6715429
55	0x3e23a99e	0.15982673
56	0x3f43326a	0.762488
57	0x3e640076	0.22265801
58	0x3f795872	0.9740058
59	0x3e7b7f7c	0.2456035
60	0x3e3f94ae	0.1870906
61	0x3f1c5d50	0.61079884
62	0x3de0c69d	0.109753825
63	0x3e9c1b7d	0.30489722
64	0x3ed99422	0.4249583
65	0x3fb186c3	1.3869251
66	0x3ed79a7f	0.4211006
67	0x3e6c70d9	0.23089923
68	0x3f0787e1	0.5294171
69	0x3f2e8529	0.68171936
70	0x3e9016da	0.28142434
71	0x3f0b429c	0.5439851
72	0x3f304aa0	0.6886387
73	0x3f3a9abd	0.7289236
74	0x3f0654f2	0.52473366
75	0x3f173e12	0.59079087
76	0x3eabf8b6	0.3358819
77	0x3fbf7c81	1.495987
78	0x3f540fde	0.8283671
79	0x3f6d11f7	0.9260554
80	0x3f5e9c9c	0.86957717
81	0x3f8ddd07	1.1083077
82	0x3e5e6c60	0.2172103
83	0x3e305af0	0.1722219
84	0x3ec2d67e	0.3805427
85	0x3d53e459	0.05173144
86	0x3faae944	1.3352437
87	0x3f4519eb	0.7699267
88	0x3ecd281f	0.40069672
89	0x3f1b8b96	0.60759866
90	0x3f7ba59f	0.9829959
91	0x3f5bbe43	0.8583719
92	0x3e1afd4c	0.15135688
93	0x3eeaf72a	0.45891696
94	0x3e535bd0	0.20640492
95	0x3f6dc56e	0.9287938
96	0x3dffa220	0.12482095
97	0x3ecad715	0.3961722
98	0x3f7fccb5	0.99921733
99	0x3d3a5e12	0.04549987
100	0x3f14b53f	0.5808906
101	0x3f04a2ec	0.518111
102	0x3e4cadec	0.19988221
103	0x3ef3c804	0.47613537
104	0x3f4b904e	0.79517066
105	0x3f6b3b7c	0.9188764
106	0x3f322246	0.6958355
107	0x3f2faadb	0.6862008
108	0x3f542822	0.8287374
109	0x3f5d067c	0.8633802
110	0x3eecd4bd	0.46256056
111	0x3f7cf732	0.9881469
112	0x3f18d7a5	0.5970405
113	0x3f85fe72	1.0468276
114	0x3e6296b5	0.22127803
115	0x3f730718	0.949327
116	0x3eb8184d	0.3595604
117	0x3ed658d9	0.4186466
118	0x3f179506	0.59211767
119	0x3f9523bf	1.1651534
120	0x3ddd6d85	0.10811905
121	0x3f860eb0	1.0473232
122	0x3d9a192a	0.07524331
123	0x3f3f857a	0.74813044
124	0x3e9d6aec	0.30745637
125	0x3e99ff8c	0.3007778
126	0x3f560a6e	0.83609664
127	0x3e625baf	0.22105287
